src/final_model.tflite (tflite, 767348 bytes, 16 tensors)

sequential/dense/BiasAdd/ReadVariableOp f4 [29]
000000 c2 50 07 bc f4 8d 9d bb ff 5e d3 bd 2a b6 c4 bb
       -0.008259 -0.004808182 -0.103208534 -0.006003161
000010 ce d1 a3 bb 8a 0e b6 bb 86 52 6b bc 93 c6 c4 bb
       -0.004999376 -0.0055559324 -0.014362937 -0.006005117
000020 1e f6 c4 bb 61 44 a7 bb d2 0b e7 3d d0 a7 c4 bb
       -0.006010785 -0.005104587 0.112815514 -0.00600145
000030 af 10 21 bc 46 c5 c7 bb 35 f5 a9 bb 96 c3 c4 bb
       -0.009830638 -0.006096515 -0.0051867017 -0.006004761
000040 a5 f6 5a bd 0c 6a fe bc 0a c6 c4 bb a3 ec dd 3d
       -0.053457875 -0.031056426 -0.0060050534 0.108361505
000050 0b 85 c8 bb 5f 35 d8 bb c5 5c 39 bb 78 82 63 3d
       -0.0061193756 -0.006598159 -0.0028284055 0.055544347
000060 41 bb 27 bb 34 b6 c4 bb a7 56 a8 3b 5e b1 c4 bb
       -0.002559379 -0.0060031656 0.005137283 -0.006002589
000070 9d ad c7 bb
       -0.0060936944

sequential/dense_3/BiasAdd/ReadVariableOp f4 [8]
000000 a9 82 24 3c 63 3e 01 3e 21 81 23 be 5c bc 12 3d
       0.010040917 0.12621455 -0.15967228 0.035824165
000010 bb dd 07 bd b3 c2 9c 3d 4e 58 24 3c 1d ed 8f bd
       -0.033170443 0.076543234 0.010030819 -0.07027648

sequential/dense_2/BiasAdd/ReadVariableOp f4 [29]
000000 ca 93 59 bc 39 0e 3f be e2 ea f6 3d 00 d2 b1 bd
       -0.013279865 -0.1865777 0.12056519 -0.086826324
000010 77 94 a1 bc 88 c7 c4 3b 29 0d 7e 3d b5 ca 24 bc
       -0.019724114 0.0060052313 0.06202427 -0.010058095
000020 5c f6 59 3e 7d 50 a7 3c 25 98 b0 3d 88 98 dc bc
       0.21285385 0.020424122 0.08622769 -0.026928201
000030 10 0e 14 3c f9 4a e7 3c 6f e3 05 bd 22 0e 0c 3e
       0.009036556 0.028233992 -0.0326876 0.13677266
000040 1f ba 92 3d ae b3 73 ba 99 9d f7 bb f1 f5 82 3a
       0.07164406 -0.0009296489 -0.007556629 0.0009991509
000050 36 be 49 3e 04 5a 9a bd ec 33 11 bd 63 e5 4d bc
       0.19701466 -0.075367 -0.035449907 -0.012566897
000060 68 c3 4e 3d 5b 78 08 bc a9 40 9a 3d 8e 31 aa 3c
       0.050479323 -0.008329476 0.07531864 0.020775583
000070 4b bc 34 3c
       0.011031221

sequential/dense_1/BiasAdd/ReadVariableOp f4 [29]
000000 5a 55 d2 bd 5c 87 a6 3d 5a 8d d9 3d 0f 2b cd bb
       -0.10270186 0.081312865 0.10622664 -0.0062612365
000010 00 00 00 00 60 d4 5f bd 59 f5 05 3e c6 82 0e bd
       0.0 -0.054645896 0.13081874 -0.034792684
000020 cb 17 8b bc 99 b8 21 3d 00 00 00 00 4b ab 2c 3e
       -0.016979119 0.039482687 0.0 0.16862218
000030 bc 42 11 3e 12 13 89 bc 27 aa 4e 3d cc 5a df bb
       0.14185613 -0.016732726 0.05045524 -0.0068162438
000040 49 37 06 3c 26 6b a4 bc 88 58 79 3e ca 7c 33 3c
       0.008191892 -0.020070624 0.24350178 0.010955045
000050 d1 8c 1c bc 54 44 2c 3e cf 18 16 3e 81 00 89 bd
       -0.009555058 0.1682294 0.14657901 -0.06689549
000060 e9 e5 18 3d 0a 80 0a bd 65 ac d9 3d 5c 00 03 be
       0.037328634 -0.033813514 0.10628585 -0.12793106
000070 df 76 33 bc
       -0.010953634

sequential/conv2d/BiasAdd/ReadVariableOp f4 [29]
000000 e9 e1 18 bd c9 e5 9c 3d 12 43 3a bc 38 e5 e8 3c
       -0.03732482 0.076610155 -0.01136853 0.028429613
000010 8d 18 50 bb 82 c2 78 3d fa 21 25 3d 74 ef 4d ba
       -0.0031752915 0.060732372 0.040315606 -0.00078558107
000020 fc 95 03 3c 59 bb 85 3c c0 fb 15 bd 94 24 13 3d
       0.0080313645 0.016324686 -0.03661704 0.035923555
000030 50 23 92 bd 5e 86 65 bb 38 19 b7 bc cd 9a b5 bc
       -0.071356416 -0.0035022716 -0.022350892 -0.022168541
000040 00 21 45 bc 26 36 c5 bc 74 df 85 3d 5b fd 7b 3d
       -0.012031794 -0.024073672 0.06536761 0.061520915
000050 84 10 76 3b de d2 21 3b 5a 41 55 bd 62 35 58 bc
       0.0037546465 0.0024692337 -0.052064277 -0.013196321
000060 38 76 77 38 54 24 9e 3b bd 8a cb bd f8 a0 21 bc
       5.899949e-05 0.004826108 -0.099385716 -0.009865038
000070 6b 27 9b 3c
       0.018939694

sequential/conv2d_3/BiasAdd/ReadVariableOp f4 [29]
000000 a9 88 0a bd eb d1 a3 3c 44 ee 5b 3d b8 4c a4 3c
       -0.033821736 0.019997558 0.053694025 0.020056114
000010 67 47 97 bc c8 2f bb bc c0 53 5f bd bf 52 3a bd
       -0.018466664 -0.022849932 -0.05452323 -0.04548907
000020 6d 33 39 bd 3d 55 c0 3d 22 8a aa bc aa 8c 8b 3c
       -0.04521506 0.09391258 -0.02081782 0.017034847
000030 ac b0 f4 3c c1 1b 3e 3d 1c d3 a4 3c 25 40 09 3d
       0.0298694 0.046413187 0.020120196 0.03350844
000040 fc d6 6c 3d 89 49 d5 ba f7 af 4b 3c e3 72 ad bc
       0.057822213 -0.0016272526 0.01243209 -0.021172946
000050 0f b8 cd bb 78 d0 78 bc 55 76 af 3a 0a e3 1c bd
       -0.006278045 -0.015186422 0.0013386706 -0.03830246
000060 08 36 31 3d ad 9e 35 3b dd e4 6e bd 0f a7 1e 3d
       0.04326442 0.0027712986 -0.05832373 0.03873354
000070 69 a6 88 3b
       0.0041702283

sequential/conv2d_2/BiasAdd/ReadVariableOp f4 [29]
000000 4d 0a 2d 3d 41 cc 68 bd 66 58 3d 3c 87 f6 db 3c
       0.04224615 -0.056835417 0.01155672 0.026850952
000010 5d 06 a2 bc cc b6 43 3c 93 7b 89 bd a1 64 1b bd
       -0.019778425 0.011945438 -0.06713023 -0.037937764
000020 2f dc 19 bd 1e 34 40 3d 87 33 f1 3c a5 bd 6c bb
       -0.0375635 0.046924703 0.029443515 -0.003612378
000030 fa c6 dc 3c e9 39 86 bc 25 72 49 3d 0e fe 3d 3d
       0.026950348 -0.016385036 0.049181122 0.046384864
000040 a7 8d 01 3d c6 3f cc bb 1a 08 bd 3b 07 1e 93 3b
       0.03162923 -0.0062331883 0.005768788 0.0044896635
000050 ba 71 b0 bb b3 cd ff bc 28 31 28 3c c9 7b e7 bc
       -0.005384651 -0.031226015 0.010265626 -0.028257268
000060 94 d1 cb bc 23 8e 5f 3c ea a3 8e bc b2 43 24 bd
       -0.024880208 0.013644728 -0.017412145 -0.04010362
000070 75 62 1c 3d
       0.038179833

sequential/conv2d_1/BiasAdd/ReadVariableOp f4 [29]
000000 e4 2c f7 3c ab 10 b2 3b 29 4e e6 bc 6b 34 22 3d
       0.030172773 0.005434116 -0.028113442 0.03960077
000010 3f 5f 08 bd 39 82 d2 3a de 59 7e bb 2d c8 ac 3d
       -0.03329396 0.0016060538 -0.003881089 0.08436618
000020 92 b3 ee 3b 25 4c f4 3c 37 f0 87 bd ad 6c 42 3c
       0.00728459 0.029821465 -0.06637614 0.011866731
000030 e0 f7 b6 3c 8e 9b 9c bd dd dc 8d bd 83 60 02 bd
       0.022334993 -0.07646857 -0.06926892 -0.031830322
000040 bf cc 56 3c f8 d4 a6 bc dc 58 bd 3b 87 5d fe bb
       0.013110339 -0.020365223 0.005778415 -0.007762614
000050 6d d0 4e 3b ab b5 fd 3b 21 76 47 bc 1b 7f 05 3d
       0.0031557337 0.007742604 -0.01217416 0.03259192
000060 1b cd 79 bd 18 93 cf 3c 04 b0 6a bd 43 6f 22 bd
       -0.06098662 0.025338694 -0.057296768 -0.03965689
000070 05 99 a2 3c
       0.019848356

sequential/dense/MatMul f4 [29, 5684]
000000 cb dd a1 bd e4 04 e7 3d ef e7 63 3d e7 f7 41 3d
       -0.07903632 0.1128023 0.05564111 0.04735556
000010 f7 b0 87 bd 1e 4d ac 3d 8f 7c c7 3c ef 05 84 bd
       -0.0662555 0.084131464 0.024351386 -0.06446444
000020 4c 8b 2f 3d c7 53 b3 3d 38 f4 53 bb 9d 58 7b 3d
       0.042857453 0.08756214 -0.003234161 0.061363805
000030 5e e5 8c 3d b3 32 9e 3c db 2d 04 3e 83 34 08 3e
       0.06879686 0.019311285 0.12908117 0.13301282
000040 4b 99 0f 3d 82 71 c6 3c db a0 d5 3c d4 ee 45 3d
       0.0350583 0.024224047 0.026077678 0.048323467
000050 bb d3 c9 3c b9 8c 87 3c a5 d8 e8 3d f2 81 ab bd
       0.024637094 0.016546594 0.11369447 -0.083743945
000060 c5 51 02 3e fd 5f 60 3d bd 6b 54 bd e4 a7 7e 3d
       0.12726505 0.05477904 -0.05186056 0.06217183
000070 96 0a e8 3c 62 36 50 bd 8c 3e 26 3d 01 fb bc 3c
       0.02832536 -0.050833113 0.040586993 0.023068907
000080 8a 5c 11 3c 19 ec 53 bd a6 5d 0a 3d 0b 84 dd 3c
       0.008872161 -0.051738832 0.033780716 0.027040502
000090 b6 a0 c0 bd 07 86 87 3d 52 f2 34 3d 9e a0 d5 bb
       -0.09405653 0.066173606 0.044176407 -0.006519391
0000a0 b0 3c 1a 3d 5b 0e cf 3c 96 31 df 3c df 41 05 3e
       0.037655532 0.0252754 0.027245324 0.13013409
0000b0 98 f4 d0 3d a4 7a 27 3b b7 69 45 3c 56 6e 30 bb
       0.102029026 0.0025555277 0.01204913 -0.0026921234
0000c0 1b b6 9a 3c e4 f2 e6 bb 60 ef 34 3c 6c 9f e1 3d
       0.018885663 -0.007047998 0.0110434 0.110167354
0000d0 e7 03 f2 bd 72 b7 00 3e 3f fb 13 3d 72 ae 1d bd
       -0.118171506 0.12569979 0.03612828 -0.038496442
0000e0 03 20 3b 3d 9f 5f 04 3d a7 f3 a3 bc f5 46 06 3d
       0.045684826 0.032317754 -0.020013643 0.032782514
0000f0 d6 c0 a8 3c f9 04 0c bc 4e 11 8a bd 32 80 87 3d
       0.020599764 -0.008546107 -0.06741582 0.06616248
000100 c1 78 b8 3c 6e 77 6d bd ae af 94 3d 29 0d 87 3c
       0.022518517 -0.057975225 0.07260071 0.016485767
000110 68 52 65 bc 5e 5a 44 3d b8 49 32 3d 2c 10 03 3d
       -0.013996698 0.047937743 0.043527335 0.031997845
000120 11 c1 d4 3d fa cf 33 3d e8 f5 df 3c 45 d4 97 3c
       0.10388387 0.043899514 0.027338937 0.018533835
000130 81 2c 9f 3b 18 c4 cf 3c 8b 30 95 3c d7 e4 67 bb
       0.0048576 0.02536206 0.018211624 -0.0035384202
000140 86 12 ef 3d 3f 71 57 bd a4 24 ae 3d 98 ed 7d 3d
       0.11673455 -0.052598234 0.085030824 0.061994165
000150 95 f6 2e bd 3d 2c 24 3d 79 fc 8a 3c 49 40 2c bb
       -0.042715628 0.04008125 0.016966091 -0.0026283434
000160 ca 14 0c 3d 86 b0 7c bb 65 04 14 bd c6 d7 3b bd
       0.034199513 -0.0038557365 -0.036137003 -0.045860074
000170 e0 ae ae bc 01 79 9a 3d 97 0f d6 bc 04 40 11 3d
       -0.021323621 0.07542611 -0.02613048 0.03546144
000180 05 3f 99 bc d0 f8 a2 bc 8a 30 8a bc c0 d2 17 3c
       -0.018706808 -0.019894034 -0.016868848 0.009266555
000190 c7 56 88 3d 84 07 9f 3d ca 22 f1 3c f5 b7 5a 3c
       0.066571765 0.07765105 0.029435534 0.013349523
0001a0 97 f2 7d 3c 22 bd b8 3c fa 7f 24 3d 76 53 f1 3a
       0.015499732 0.022551123 0.04016111 0.0018411714
0001b0 5b 99 e9 bc b5 70 85 3d cd 68 54 bd 1e 59 b7 3d
       -0.028515508 0.06515638 -0.05185776 0.08952545
0001c0 7a eb 99 3b 40 4f 43 3d 61 31 0b 3d e3 94 ab bc
       0.0046972604 0.047683 0.03398264 -0.020945018
0001d0 06 43 13 bc 56 ea 9a bc 24 04 12 3c 66 d6 89 bd
       -0.008988148 -0.018910568 0.00891212 -0.067303464
0001e0 81 b1 94 3c 7c 00 f1 3c ae b5 5f 3c a2 3a 0b 3c
       0.018151047 0.029419176 0.013654156 0.008497866
0001f0 a8 16 7b 3d 3e ad 86 bc f4 63 53 3c d5 34 3f 3c
       0.061300904 -0.01644003 0.012902249 0.011670311
000200 6e 7a fd 3c f4 a0 3e 3d 95 d8 4c 3d 93 04 4c 3c
       0.030942168 0.046540216 0.050011236 0.012452262
000210 5f bb ab bc 45 7f 1a 3d 2e 01 42 3d 82 22 41 3d
       -0.020963369 0.03771903 0.047364406 0.04715205
000220 ad ff 52 bc 3f 67 a9 3c 56 9a 5c 3d 8a c0 4a 3c
       -0.012878341 0.020679114 0.053858124 0.012375006
000230 c1 ab ec 3d aa da 5e 3d d7 b8 f1 3c 9a 0f 57 3c
       0.11556197 0.054407753 0.029507084 0.013126278
000240 20 66 68 3c b3 25 0c bc 1b 93 df 3c 3c 5b 81 3d
       0.014184505 -0.00855391 0.027291825 0.0631623
000250 dd bc 15 bd 82 51 27 3d 48 a9 8a bc e0 83 4f 3c
       -0.036557067 0.040849216 -0.016926423 0.012665719
000260 76 86 40 3d f9 11 16 bb 37 1c a5 bc ca ff ef 3c
       0.047003232 -0.0022898896 -0.020155055 0.029296774
000270 62 b2 59 3d 60 01 32 3d 16 38 07 3c 33 c9 a0 3d
       0.053148635 0.043458343 0.008253118 0.07850876
000280 f6 1d 02 3d f4 05 d3 3c db 89 65 bc d9 ba 32 3d
       0.031766854 0.025759675 -0.014009918 0.043635223
000290 b8 e4 8b 3d 73 82 c0 3d 0b 1b 2a 3d 14 51 16 3d
       0.06830734 0.09399881 0.041529696 0.036698416
0002a0 f5 c3 af 3d 95 a8 a3 3d b1 68 87 3c 25 85 28 3d
       0.08582298 0.07991139 0.016529413 0.0411426
0002b0 c6 1d c5 3d 59 41 73 3d a4 9a 09 3d 22 21 32 3d
       0.096248195 0.059388492 0.033594742 0.04348863
0002c0 0d d7 9b 3d b8 9a 5c bd b5 2a a3 3c cc a9 1c 3d
       0.07609377 -0.05385849 0.019917825 0.03824787
0002d0 c2 91 9f 3c 27 a6 fb 3d e3 e0 88 3d 9d ed 03 bd
       0.019478682 0.122875504 0.06683519 -0.032209028
0002e0 ca 83 10 3d cc 5c 62 3d 77 51 9d 3d fd d4 61 3c
       0.035281934 0.05526428 0.07681554 0.0137836905
0002f0 09 92 0d 3d 4a be 3e 3d 2e df 96 bc 1b 82 20 bc
       0.034563098 0.046568193 -0.018416967 -0.009796645
000300 a5 c8 81 3d e5 bc e5 3d 14 10 9a 3d 47 42 45 3d
       0.06337098 0.112176694 0.07522598 0.04815891
000310 9d 3b 97 3d c5 8d b2 3d b5 38 b1 3d ea 0e 18 3d
       0.07384417 0.08718447 0.08653394 0.0371236
000320 0b 3b 09 3e 84 5e 87 3d 4b 21 8b 3d d6 3b f4 bb
       0.1340143 0.06609824 0.067934595 -0.007453422
000330 4b 06 47 3d 46 f6 4b 3d 63 2c a1 bc a0 9f 11 3d
       0.048589986 0.04979541 -0.019674486 0.03555262
000340 1f c5 7f 3d 9a 65 6c 3d 3e 3d 00 3e 1c 78 0f 3d
       0.06244385 0.057714082 0.12523362 0.035026655
000350 99 c8 a2 bc 69 f3 f6 bc 9a ac 59 3d f8 2a e2 3d
       -0.019871043 -0.030145364 0.05314312 0.11043352
000360 20 3d e1 3c 5a 2a 62 3d a5 56 da bc 81 94 dc ba
       0.027494967 0.05521617 -0.026652643 -0.0016828926
000370 dc a6 6d 3d 00 27 bf 3d 5c b7 ed 3d e1 f3 d0 3d
       0.058020458 0.093336105 0.11607239 0.10202766
000380 10 31 1a 3d ef 97 8f 3d e0 f4 a8 3d 4c 5c 83 3d
       0.037644446 0.07011401 0.08249831 0.064140886
000390 21 18 32 3d 54 f6 a2 3d 90 e4 5f 3d 08 19 80 3d
       0.043480042 0.079571396 0.054661334 0.06254774
0003a0 c2 18 ef 3a e3 1a 27 3d d5 03 32 3d cd 9c bc bd
       0.0018241631 0.040797126 0.043460686 -0.09209595
0003b0 73 22 c9 bb 71 58 83 3d b4 d2 b6 3b ff 6b e8 3d
       -0.00613814 0.06413353 0.005579317 0.113487236
0003c0 4f 44 6e 3c 3d ef 1d bd a3 e7 17 3c 37 75 79 3d
       0.014542653 -0.038558234 0.009271535 0.0609028
0003d0 f7 e1 56 3d 85 fb 21 bb 4e 95 77 3d f7 0f 45 bd
       0.05246159 -0.0024716568 0.060445122 -0.04811093
0003e0 62 90 cf b9 84 bd 8f bc 22 a6 1c 3d 64 e5 8a 3d
       -0.0003958969 -0.017546423 0.038244374 0.06782034
0003f0 a8 a9 79 3c d8 14 b0 3c 83 b3 38 3b cc fc e7 3d
       0.015238203 0.021494314 0.002818317 0.11327514

sequential/dense_1/MatMul f4 [29, 29]
000000 ea 99 88 be 3e 04 71 3e 5f 06 43 3e 41 15 0c be
       -0.26679927 0.23536775 0.19045399 -0.13679983
000010 ad 6d 5c 3e b1 2e 55 3e a6 c9 8e be f5 25 da 3b
       0.21526213 0.20818593 -0.2788822 0.006657357
000020 2e cc 88 bc d1 32 54 bc 8d 89 2e 3e 17 b4 b5 3d
       -0.016698923 -0.012951569 0.17044659 0.0887224
000030 60 00 8d be 15 0b 42 3e 1e 45 70 3e 37 f4 c7 bd
       -0.2753935 0.1894954 0.23463866 -0.09763377
000040 94 50 06 3e cb d1 aa bc b2 cd 10 3e ac 31 fa 3d
       0.13116676 -0.02085199 0.14140967 0.122165054
000050 46 6c 23 3e ca dc f5 3d 71 c3 e3 be be 31 89 3d
       0.15959272 0.12005003 -0.44485047 0.06698941
000060 f0 3e 50 3e 41 92 11 be 04 d7 89 3d 9d 46 98 3e
       0.20336509 -0.14215948 0.06730464 0.29741374
000070 1d 84 d9 3d b0 16 8b be 7b fb 32 3e bf fb 16 3d
       0.10620902 -0.27165747 0.17478745 0.036861178
000080 49 31 41 be 98 3b 50 be f8 a5 f0 bd 9c 00 07 3e
       -0.18866457 -0.20335233 -0.11750406 0.13183826
000090 1c 12 99 be 41 99 74 be 81 81 79 3e fd ec b6 3e
       -0.2989663 -0.23886587 0.24365808 0.35727683
0000a0 b8 65 88 be f0 18 a1 be 83 22 53 3e fe ec 28 be
       -0.26640105 -0.31464338 0.20618634 -0.16496655
0000b0 88 79 7b be a8 88 15 be a1 ed bf 3d a0 81 92 bc
       -0.24558079 -0.14602911 0.09371496 -0.017884076
0000c0 8d a5 d5 bd 90 49 15 be a7 7c 0e 3d 4d 98 7b 3e
       -0.10431967 -0.14578843 0.034786846 0.24569817
0000d0 a9 f8 82 bc 73 7d ac bb e8 76 04 3e 1b e3 99 be
       -0.015987711 -0.005263978 0.12935984 -0.3005608
0000e0 0d b0 9a be 8e 3c af bd ff 5b 81 be 66 da 19 be
       -0.3021244 -0.08556472 -0.252655 -0.15024719
0000f0 16 55 8e 3d 26 45 92 3e c1 1f 9a 3c 00 ec 9d 3d
       0.069498226 0.2856838 0.01881397 0.07711029
000100 fc 74 8a 3e a1 9e 03 3e e2 81 7a 3e 14 52 1b 3c
       0.27042377 0.12853481 0.24463609 0.009480018
000110 2a 8f 80 3e fa ef 91 3e f1 54 10 be 95 2a 44 3e
       0.25109226 0.285034 -0.14094903 0.19156869
000120 18 41 30 be ee f6 88 3e 90 18 4c be 24 90 77 3e
       -0.17212331 0.26750892 -0.19931245 0.24176079
000130 00 b5 10 be d5 26 94 3e 59 25 8b 3c a8 c4 e2 bc
       -0.14131546 0.28935876 0.016985582 -0.027681664
000140 e5 bd 24 3e 21 18 b6 be 11 3c 7e bd 75 9e d1 3d
       0.16088064 -0.35565284 -0.062069003 0.102353014
000150 38 ad 63 be 75 7a b3 bb c5 7b 16 3e 95 92 2a 3e
       -0.22234046 -0.0054772445 0.14695652 0.16657479
000160 26 69 ae bd 99 58 80 be 21 e7 59 bd ce 15 4f bc
       -0.08516149 -0.25067595 -0.053198937 -0.012639476
000170 09 d1 a1 3e cf 97 dd 3d 0d ee 33 bd 21 94 9f 3e
       0.31604794 0.10819971 -0.043928195 0.311677
000180 17 b2 36 3c c6 1a 8a be ca 12 66 3e 98 47 0a be
       0.011150858 -0.26973552 0.22468105 -0.13503873
000190 3c e5 35 3c 6b 2c 58 3d 12 7c 87 be 19 c0 13 3d
       0.011102017 0.052776735 -0.26461846 0.03607187
0001a0 15 34 9e 3e 9b c2 6c 3e fd 08 a2 3e 7d 15 e0 3d
       0.3089911 0.23121111 0.31647483 0.109415986
0001b0 93 a6 10 3e f2 35 0c 3e c1 02 be 3d c5 8d a4 bc
       0.14126043 0.13692454 0.09277869 -0.020087132
0001c0 77 d0 58 bd ea 4c ea 3d 3c ae 23 bd 90 0d 58 bd
       -0.052933183 0.114404514 -0.039961085 -0.05274731
0001d0 c0 ca 62 bc 60 60 74 bc f6 90 99 be 80 18 4e 3e
       -0.013842285 -0.014915556 -0.2999341 0.20126534
0001e0 e0 50 d4 bc 62 72 2d be 00 57 16 bc d0 87 30 be
       -0.02591747 -0.16938165 -0.009176016 -0.17239308
0001f0 ec 7b 50 3e 08 6a fc 3d 38 8d 5f be 10 2c 8f bd
       0.20359772 0.12324911 -0.21831214 -0.06990826
000200 60 cb 85 3e e4 f3 8c bd c2 60 94 3e e0 f4 8d be
       0.26131725 -0.06882456 0.2898007 -0.27725887
000210 e0 87 e1 bd 29 08 83 be bc a7 2b be b2 3d 8c be
       -0.11012244 -0.25592163 -0.16763204 -0.2739082
000220 79 45 a0 be 68 58 af 3d a8 ee 78 3e 18 39 21 bd
       -0.31303003 0.08561784 0.2430979 -0.03936109
000230 e0 cc 48 be 80 da 26 bd d8 80 70 be 30 d7 94 3d
       -0.19609404 -0.04073572 -0.2348665 0.07267606
000240 fc 8e 8c bd 55 b4 8b 3e 68 ef 95 bd 9f 0a 8e 3e
       -0.068632096 0.2728602 -0.07321054 0.27742478
000250 a4 24 a1 3e 5c 90 45 3d eb e8 91 be 58 9c 99 be
       0.31473267 0.048233375 -0.28498015 -0.30002093
000260 1e 9e 87 bd b5 88 d2 bb 5f 6e 87 3e 3b 29 f8 3c
       -0.06621955 -0.006424988 0.26451394 0.030293098
000270 04 5f 08 3e 11 ba eb 3d e6 88 80 be a1 67 16 bd
       0.13317496 0.11510099 -0.25104445 -0.036719922
000280 37 e5 86 be 25 ca 8a 3e 85 46 05 3e 9f 01 8c bd
       -0.26346752 0.2710735 0.13015182 -0.06836247
000290 d2 ef 76 be 5d 5b 9d bb 44 b0 49 3e b8 b9 e6 3d
       -0.24114922 -0.004802151 0.19696146 0.11265892
0002a0 3e ec 81 be a9 92 38 3e 6a 0c 5f 3d 84 d7 a1 bd
       -0.2537555 0.18024696 0.0544552 -0.079024345
0002b0 c5 ed 85 bd d9 92 10 be 3c 13 8c 3e ef 6f 8c be
       -0.065394916 -0.14118518 0.27358425 -0.2742915
0002c0 86 71 f5 bd 3e eb bf bd bb e4 c7 3d 4f f6 51 be
       -0.119845435 -0.09371041 0.09760424 -0.20504116
0002d0 ff 0c 91 bc 3a c7 ab bd b8 d7 c6 3d f7 9b 56 3e
       -0.017706392 -0.08387609 0.09709114 0.20957933
0002e0 60 60 e5 3c a0 01 81 3e 57 56 bd 3d 06 91 03 be
       0.028000057 0.25196552 0.09244984 -0.12848291
0002f0 e6 73 79 3e b9 c5 8c be db 0a 2f 3e 19 21 59 be
       0.24360618 -0.274946 0.17093985 -0.21204032
000300 18 b0 a6 be da da 9d 3c 20 ff 94 be f5 9f 91 be
       -0.32556224 0.019269396 -0.29100895 -0.2844235
000310 41 04 9a 3e 42 17 18 be 32 68 4c be d9 2f be 3d
       0.3008137 -0.14852622 -0.19961622 0.0928647
000320 0d 8b 0e 3d 80 2a 40 bc 02 80 89 3c 51 c0 01 ba
       0.034800578 -0.011728883 0.016784672 -0.0004949617
000330 de 5b 88 be 2d ff e8 3d cb 90 fc 39 29 76 68 be
       -0.2663259 0.11376796 0.00048173065 -0.22701325
000340 d8 50 c8 3d ae 9e 9a be 8a 70 06 3d 90 f1 86 bd
       0.09781045 -0.30199188 0.03282217 -0.06589043
000350 21 1a 8b 3e 52 e0 76 be 93 87 30 3e f8 d5 3d 3d
       0.27168372 -0.24109009 0.17239217 0.046346635
000360 56 b6 35 3c 14 43 7e 3e 74 71 06 be 8b af c5 3d
       0.011090836 0.24830276 -0.13129216 0.09652623
000370 00 dc 5e be ff 9e 89 3c 4b 3b 14 3e 4d af 49 3e
       -0.21763611 0.016799448 0.14475743 0.19695778
000380 35 7b 05 be ed bf 29 be a0 cd 8c be 93 84 82 3e
       -0.13035281 -0.1657712 -0.2750063 0.2549177
000390 bb 14 2a 3d 0b c9 79 be 6c 68 49 3c a2 a5 b9 3d
       0.041523676 -0.24393098 0.0122929625 0.09064795
0003a0 a7 3b 8c be 27 d8 c8 bd 68 6b 2d 3e bd 73 d2 3d
       -0.2738926 -0.09806853 0.16935503 0.102759816
0003b0 5e c0 85 3e 50 70 f8 3d 84 e2 18 3e 40 8f 9d 3e
       0.26123327 0.12130797 0.14930159 0.30773354
0003c0 6b 31 3a 3e 29 c5 5e 3e f2 a2 67 bd 6f 8c 6a be
       0.18182914 0.21754898 -0.05655188 -0.22905134
0003d0 08 45 83 3e 4d db 30 be 08 b6 70 3e 3a 9f 47 bd
       0.25638604 -0.17271157 0.2350694 -0.048735835
0003e0 ff 00 fa 3d 34 c0 ae bd a2 ee 9a be 51 b4 a9 be
       0.12207221 -0.085327536 -0.30260187 -0.33145383
0003f0 9e 08 1d ba 97 10 04 3e c8 03 10 3e d9 d3 2d be
       -0.0005990359 0.12896954 0.14063942 -0.16975345

sequential/dense_2/MatMul f4 [29, 29]
000000 48 d8 0b be 88 7e b2 3d 7b 0b 2d be 44 5b 85 3d
       -0.13656723 0.0871554 -0.1689891 0.06511548
000010 c0 60 e8 3b 0a e2 55 be 32 9a a1 3d 26 be 92 3e
       0.0070916116 -0.20887008 0.078907385 0.28660697
000020 91 55 19 3d a7 0b 0a be fe 7a 33 3e 70 13 91 bd
       0.037435118 -0.13481008 0.17527387 -0.070837855
000030 88 f6 c6 bd e9 ba 5f be 4a ca c4 bd b2 58 1f be
       -0.09714991 -0.21848644 -0.09608896 -0.15561178
000040 17 d9 15 bd 60 e1 44 3e 9b 9f 9c 3e b4 cd ef 3c
       -0.036583986 0.19226599 0.3059052 0.029272892
000050 aa 45 8c 3d c7 7a 06 be 93 d2 2d 3e 6d 68 a1 be
       0.06849225 -0.13132773 0.16974859 -0.31524983
000060 dc 78 62 3d 67 1b 2b 3e cd ef e4 bd 0c c3 d6 bd
       0.05529104 0.16709672 -0.11178551 -0.10486421
000070 05 d7 71 be 25 ee 71 3e 53 b4 95 bd d2 ff 4a 3e
       -0.2361718 0.23626001 -0.07309785 0.1982415
000080 0a 7c b6 3c ac 26 d4 bd 22 ca af 3e 5c f8 06 3e
       0.022275943 -0.103589386 0.34333903 0.13180679
000090 5b ee b6 3d 2d 70 80 3e 0f aa 58 be d0 ef 3a 3e
       0.089321814 0.25085583 -0.21158622 0.18255544
0000a0 ed bf a8 3d 1a 3e 68 be 1b 6e 30 3d 8c c8 a3 be
       0.08239732 -0.2267994 0.043073755 -0.31988943
0000b0 ed 2d 85 3c 74 e5 2b bc f2 e8 8d 3e 21 6d be be
       0.01625725 -0.010491718 0.27716786 -0.37192634
0000c0 a0 e0 e3 3d 8c 5b 84 3c ff a0 b2 be 00 1d 0c be
       0.11126828 0.016156934 -0.34888455 -0.13682938
0000d0 ea be 16 3d f9 12 0b bd 2b 99 55 3e a0 10 dd 3d
       0.036803164 -0.03395364 0.2085921 0.107941866
0000e0 a4 bb 58 3d b2 8c 6b 3e c0 55 9d be 46 3f 24 3e
       0.052913323 0.2300289 -0.30729485 0.16039762
0000f0 40 86 39 3e 75 91 2a be d8 62 63 3e 91 f4 3d be
       0.18117619 -0.1665705 0.22205675 -0.18550326
000100 54 b1 3c 3e 86 a8 d2 bc e1 bf 2a 3e b5 bc 33 3e
       0.1842702 -0.025715124 0.16674758 0.17552455
000110 10 48 fc bc 63 30 ce 3e d5 d7 96 be d9 20 38 bd
       -0.03079608 0.4027129 -0.29461542 -0.0449532
000120 ad 1e ab 3e 65 86 a2 3e 52 0f 3b 3e 93 9a e7 3d
       0.3342184 0.3174316 0.18267563 0.113087796
000130 56 59 a2 3c 95 3f 53 be 21 4d 30 3e ee 70 12 bd
       0.01981799 -0.20629723 0.17216922 -0.03575223
000140 84 8f fc 3d 08 be 9e bd b8 5b a4 bd 6d af e2 3d
       0.12332061 -0.07751089 -0.080253065 0.11068616
000150 3a 01 c7 3e ba 47 b6 bd fd 8b a4 be 63 ee d5 3b
       0.38868123 -0.089003995 -0.32138053 0.006528662
000160 25 a2 36 be 65 ea 8c be 37 47 a7 3e 3c 0e e0 3d
       -0.1783529 -0.2752258 0.3267152 0.10940215
000170 08 2c a9 3e cd 32 2d be c2 36 bb 3d e8 bb ef 3c
       0.33041406 -0.1691391 0.091413036 0.029264405
000180 2e f9 89 3d 48 13 20 3d 00 97 7a 3e 51 a3 91 be
       0.067369804 0.039080888 0.24471664 -0.28444913
000190 3e 52 3c be 7c e5 51 3e c5 7e 5f 3e 20 6e b0 bd
       -0.18390748 0.20497698 0.21825702 -0.08614755
0001a0 33 00 ab 3e 23 12 99 be 72 ad 01 be 93 62 7d 3d
       0.3339859 -0.2989665 -0.1266382 0.061861586
0001b0 fa 8c af be 76 d7 21 bd a6 16 e7 3d 0e 78 26 3d
       -0.34287244 -0.03951212 0.11283617 0.040641837
0001c0 0d 62 70 3e f0 d2 07 3e 54 c9 84 3e 97 b0 1c be
       0.23474903 0.1326406 0.2593485 -0.15301739
0001d0 50 74 82 bd 85 54 9a be d2 51 9f 3e 97 ce 4f 3e
       -0.06369841 -0.30142608 0.3111711 0.20293652
0001e0 22 7f 07 3e 53 1e d4 3c 53 3c 1f bd c2 5d 84 be
       0.13232091 0.025893366 -0.03887589 -0.25852782
0001f0 c4 21 02 bd 43 78 c5 bd 60 22 66 3e 18 f8 a6 be
       -0.031770483 -0.09642079 0.2247405 -0.32611156
000200 9f c3 a4 be d5 51 c8 bc 9d 4a b0 3e 7a b3 43 3e
       -0.32180497 -0.024453083 0.34431925 0.19111434
000210 96 0c e0 3d 46 0c f1 3c 68 f1 88 3d 45 97 ab be
       0.109399006 0.029424798 0.066866696 -0.33513847
000220 77 f9 fe 3c 6c ba 1b 3e ce b6 b3 3c 77 44 39 3e
       0.031124813 0.15207833 0.021937754 0.18092524
000230 47 84 87 3c 99 59 7b be 72 32 e4 bd 77 fd 98 3d
       0.016542567 -0.24545898 -0.11142434 0.074702196
000240 3a 97 84 be c2 1a 12 3e 01 54 15 3d dc bc 9a be
       -0.25896627 0.1426802 0.036457065 -0.30222213
000250 c0 8f 9f bd 0e 16 25 3e 5d 8f fb bd f6 23 1b be
       -0.0779109 0.16121694 -0.12283204 -0.15150437
000260 37 63 4f 3e 7c 55 78 be 44 6c 82 3e 28 0d 27 3d
       0.20252691 -0.2425136 0.25473225 0.04078403
000270 dc d7 2f be 2b 1b 3a be 83 b9 46 3e eb df a8 3d
       -0.17172188 -0.18174426 0.19406705 0.08245834
000280 56 aa 73 be e6 e4 7f 3d 00 3e 29 3c 5c d5 8c 3e
       -0.23795447 0.062474154 0.010329723 0.2750653
000290 ee 6b 2b be 3d c9 8c 3e 40 ef 70 3d 4e 91 27 be
       -0.1674039 0.27497283 0.058821917 -0.16364023
0002a0 46 13 5c be 89 a8 82 be d4 6a 6b 3e 24 7d e9 bd
       -0.21491727 -0.25519207 0.2298997 -0.11400822
0002b0 90 3a 45 3e ec cf aa 3d dd fb 64 3e e5 4a 5a 3e
       0.19260621 0.08340439 0.22361703 0.21317632
0002c0 07 54 90 3d 29 4f d2 3c 36 ee 95 3e ed 94 3d 3e
       0.07047277 0.025672512 0.29283303 0.18513842
0002d0 e8 a1 79 bd 90 d7 6c 3e f4 f3 20 3e 4f 7d 44 3e
       -0.06094542 0.23129106 0.1571806 0.19188426
0002e0 58 a2 5a be e1 c5 55 3e 1d c5 54 3e 64 82 a3 3e
       -0.21350992 0.20876266 0.20778318 0.31935418
0002f0 23 59 40 be 51 37 5f be 4d e3 af 3e 71 c4 29 be
       -0.18784003 -0.21798445 0.34353104 -0.16578843
000300 dc ba 11 3e ba 49 a2 3d b0 de 5f be 5c 0b 10 3e
       0.14231437 0.079242185 -0.21862292 0.14066833
000310 d8 ce 38 be 00 39 68 3e 01 3a 01 3e 66 9f 96 be
       -0.18047655 0.22677994 0.12619783 -0.29418486
000320 8b 41 bb be b0 bf 8e be 6e de 2d 3e 14 3e 2f be
       -0.36573443 -0.2788062 0.16979381 -0.17113525
000330 a6 29 40 3e 38 93 44 be c6 54 6c 3d 10 bb 78 be
       0.18765888 -0.19196784 0.057698034 -0.24290109
000340 0d f8 ef 3d 5a 60 68 3e 7d 4a 91 3d 8e c5 91 3e
       0.11717234 0.22693005 0.07094286 0.28471035
000350 67 45 92 bc a8 c6 ee 3d f8 ff 2c be 50 33 90 3e
       -0.01785536 0.116589844 -0.1689452 0.28164148
000360 b7 1b a1 3e 8d c6 e8 3b e6 b6 75 be 82 09 da bd
       0.31466457 0.007103747 -0.23995551 -0.10646345
000370 32 6a 50 3d 0e 35 b4 bd f8 58 65 3e 29 9f a8 3a
       0.050882526 -0.08799182 0.2239722 0.0012864816
000380 9d 0c f6 3e 53 b0 85 be 84 30 a3 bd e2 ef 5c 3e
       0.48056498 -0.26111087 -0.07968238 0.21575883
000390 74 bd 33 3e b7 25 8a 3e 66 1a 21 be 78 b7 8a 3e
       0.1755274 0.269819 -0.15732726 0.270931
0003a0 d3 28 53 3e f5 39 cf 3e f5 3c a1 3a 36 ea f0 3d
       0.20621042 0.40473905 0.0012301492 0.11763422
0003b0 a4 6d 3a 3e b3 1b dc 3d 49 0d 94 3e f4 19 91 3e
       0.18205887 0.10747471 0.28916386 0.28340113
0003c0 2f ea 92 3e e7 5e 68 bd 7c 53 91 3e a4 8e 9e 3e
       0.28694293 -0.05673113 0.28384006 0.309682
0003d0 c4 3b 97 3d a2 20 73 bd 8e 66 05 3c 28 f3 05 3e
       0.07384446 -0.059357293 0.008142127 0.13081038
0003e0 8c 29 c6 bd 35 93 92 3e 63 fc 37 be 37 87 8e 3b
       -0.09675893 0.28627935 -0.17967372 0.004349615
0003f0 00 ba 56 bb db b2 27 3e 1f ec 5b be 15 0f 1d be
       -0.0032764673 0.16376822 -0.21476792 -0.15337785

sequential/dense_3/MatMul f4 [8, 29]
000000 1c 37 fa 3c 20 7d 57 bd bb 7a 0a be a9 2d 80 be
       0.030543856 -0.052609563 -0.1352338 -0.25034836
000010 7a 22 5f 3e df 08 a3 be 31 f4 74 3e 09 1f a4 3e
       0.21790496 -0.31842706 0.23921277 0.32054928
000020 9b a2 4a be 03 2a de 3d a6 57 b9 be 6f 7b 1c be
       -0.19788592 0.10847857 -0.36199683 -0.15281461
000030 60 09 ce 3d c8 9d 34 3d 33 b7 16 3e f9 cd 64 3e
       0.10060382 0.044095784 0.14718322 0.22344197
000040 37 3d 70 be b9 76 d2 3d b1 31 83 3e 91 a8 ca ba
       -0.23460852 0.10276551 0.2562385 -0.0015461614
000050 46 82 38 3e 4f 45 98 be 24 70 ca bd dd 2e 10 bf
       0.18018445 -0.29740378 -0.098846704 -0.5632151
000060 76 69 38 be f9 dd 9b be 62 a2 83 3e c8 38 90 3e
       -0.1800898 -0.3044279 0.25709826 0.2816832
000070 4c 8e 8a 3e de 26 4b be cc d2 bc be a7 ee 92 3d
       0.2706169 -0.19839045 -0.36879575 0.071744256
000080 8a b7 31 3d 0c da 09 bf 9e b1 b7 3c 33 48 94 be
       0.043387927 -0.5384834 0.022423562 -0.28961334
000090 58 8d 8f 3e 6a 85 da 3d 4d 70 cf be cf de bb 3e
       0.28037524 0.10669978 -0.40515366 0.36693427
0000a0 fb 31 51 be 79 14 2c 3d b7 6e 49 3e 68 5c a9 be
       -0.20429222 0.04201171 0.1967114 -0.33078313
0000b0 c5 5d 99 3e 3e 2a 95 3e bd 4a 36 be 2f 1a ef be
       0.29954353 0.2913379 -0.17801948 -0.46699664
0000c0 1a 5f a1 bd e5 f4 bb 3e 27 75 05 bf 26 fb a3 be
       -0.07879467 0.36710277 -0.52131885 -0.3202755
0000d0 54 e8 ba be e3 1d 3f be 4e 59 27 3c 8e 7d aa 3d
       -0.36505377 -0.18663745 0.010214163 0.08324729
0000e0 01 ae 5a be 89 62 82 bc 91 be 35 bc ab f6 ca 3e
       -0.2135544 -0.015916126 -0.011092798 0.39641318
0000f0 95 76 df be 53 6d 88 3e 90 eb 24 3d c4 2f 2a bd
       -0.43645158 0.26645908 0.040263712 -0.04154946
000100 67 06 b0 bd eb 34 12 be fb 33 32 be df 8c 96 bd
       -0.08594971 -0.14277999 -0.17402641 -0.07351088
000110 84 6c 91 be 3b 9a 16 3e bb 6b b1 bc 9a d2 49 3e
       -0.28403103 0.14707272 -0.021657815 0.19709244
000120 e7 e0 b1 3e 49 b6 87 bd 22 37 75 bd 9b d9 8f be
       0.347419 -0.06626565 -0.059867032 -0.28095707
000130 02 89 69 be f0 12 90 be 28 ac be 3d 7f dc ae 3d
       -0.2280617 -0.28139448 0.0931018 0.0853815
000140 94 a3 8b be 01 fd 48 3d 16 6b b2 be 29 85 83 3e
       -0.27273238 0.04906941 -0.34847325 0.2568753
000150 f1 5b 86 be c9 05 bd bc ae 17 2f 3e c0 48 21 be
       -0.2624202 -0.023074048 0.17098877 -0.15750408
000160 8c 5f c2 3d 5c d8 9f be 1a 86 fd bb 15 12 d3 3d
       0.0949088 -0.31219757 -0.0077369334 0.10306183
000170 b2 88 c8 be 96 a1 9f be 2a 78 9f be cd d5 f5 3d
       -0.3916679 -0.31177968 -0.31146365 0.1200367
000180 c1 43 b2 bd 8b dc b3 3e 0f e3 b1 bd 56 64 5a 3e
       -0.08704329 0.35129198 -0.08685886 0.21327338
000190 f4 14 a9 be 48 f4 01 bd f0 b1 43 3e 8f 4c d5 bb
       -0.33023798 -0.031727105 0.19110847 -0.0065093706
0001a0 d0 d0 57 be 0a 75 9a be 10 0d 57 be 89 b0 ab 3d
       -0.2107575 -0.3016742 -0.21001077 0.08383281
0001b0 dc 64 16 3e e7 fa 6d 3e 85 c0 33 3e 72 08 d8 3e
       0.14686912 0.23240243 0.17553909 0.42193943
0001c0 eb 49 4b bd 30 37 bb bd 16 4a cf 3d 9b ad 42 be
       -0.04963104 -0.091413856 0.10121553 -0.19011538
0001d0 7a c7 50 be 27 25 a6 bd 9e 6e c0 be 38 06 48 3d
       -0.20388594 -0.08112555 -0.37584394 0.048834056
0001e0 7e 58 81 be 87 cb af 3e 42 cd ac 3e a9 d8 3e bd
       -0.25262827 0.34334967 0.3375035 -0.046593342
0001f0 3a 11 e0 be b6 4b 98 3e 53 8f 10 3e 56 d9 83 3e
       -0.43763143 0.29745263 0.14117174 0.25751752
000200 5e cb c0 3e 0a b3 6e be 4a af 25 bd f6 ce f9 3d
       0.37655157 -0.23310485 -0.04045037 0.12197678
000210 f5 1d a6 bc 6f 46 56 3d a3 27 14 3e 39 0b 82 3e
       -0.020277957 0.052313264 0.14468245 0.25399187
000220 98 a0 ad 3d b1 c9 35 3e cb 38 80 3e b4 43 29 be
       0.084778965 0.1775272 0.2504333 -0.16529733
000230 21 3a 54 bd a9 23 8b 3e f5 eb 50 3e 0f 7c b4 be
       -0.05181325 0.27175644 0.2040251 -0.352509
000240 c3 42 42 be 74 ba c9 3e 06 09 f0 bd b1 5a aa bd
       -0.1897078 0.39400065 -0.11720471 -0.08318079
000250 70 38 99 3c 4b 74 49 be f2 9e 71 3e ab 40 63 3e
       0.01870367 -0.19673268 0.23595789 0.22192638
000260 13 5d 0f 3d 57 ce 64 3e 54 a8 3e 3e bd 2e 12 bf
       0.035000872 0.22344337 0.186189 -0.57102567
000270 60 e2 68 be 88 ed 17 3e 64 05 41 3d 0d 70 8f be
       -0.22742605 0.14836705 0.04712428 -0.28015175
000280 3c 91 40 be 62 13 61 be 0c 21 9c be a3 db c1 bc
       -0.18805403 -0.2198005 -0.30493963 -0.023664301
000290 3a 52 ba 3e 8f 52 76 be 8c 54 08 be c8 28 d4 bd
       0.3639086 -0.24054931 -0.13313502 -0.10359341
0002a0 8c 4c 12 be 09 dc 8a be be 9b b2 3e 03 34 b0 be
       -0.14287013 -0.27120999 0.34884447 -0.34414682
0002b0 b8 7c d1 3d ff 78 df 3e 14 f0 1e 3e d9 99 02 3e
       0.10228866 0.43647 0.1552127 0.12754
0002c0 ac 55 9b 3e 12 4e e5 3d d7 c4 ad bc ac 27 b6 be
       0.303388 0.11196531 -0.021212025 -0.35577142
0002d0 77 d7 bb 3c dd b7 43 3d ea e1 60 bd 29 05 11 be
       0.02292989 0.047782768 -0.05490295 -0.14162125
0002e0 16 0b c0 39 05 d2 7a be 12 f3 a6 bd dc bf c0 be
       0.00036629353 -0.24494179 -0.08151831 -0.37646377
0002f0 42 8d 50 3e b9 70 12 3e 97 3e 03 3d d7 83 1c 3e
       0.20366386 0.14300813 0.032042112 0.15284668
000300 ce 43 5f be 7e 97 24 be 8a c4 f8 bd 59 93 fc 3b
       -0.21803209 -0.16073415 -0.12146862 0.007707995
000310 9f 96 36 bc fc 14 49 3e 89 87 f4 be 8f 92 85 be
       -0.011144309 0.19636911 -0.47759655 -0.26088378
000320 52 7f 81 3e b1 69 9d be f0 0c 6a be 46 65 a6 3e
       0.2529245 -0.307447 -0.22856498 0.3249914
000330 5c 46 59 3d e8 10 bd 3e cd da 28 be b3 a0 4a bc
       0.053045616 0.3692696 -0.16489716 -0.012367415
000340 27 f6 4b 3d e8 d9 de be 41 b3 48 3e 98 df 5e bb
       0.049795296 -0.43525624 0.1959963 -0.0034007784
000350 2c b0 47 3e cc eb d1 3e 1b 4a 7e be e5 8e 82 3e
       0.19500798 0.4100021 -0.24832956 0.25499645
000360 86 8b 95 3e bd 4c f1 3d de 43 77 bd ee 33 6e be
       0.2920801 0.11782215 -0.060367458 -0.23261997
000370 c8 80 63 be fa 23 8d 3e 60 04 7b be 75 f8 13 3e
       -0.22217095 0.2756651 -0.24513388 0.14450248
000380 c9 8c bf 3c 13 b8 d1 be 31 61 d3 3d b1 4b c4 be
       0.023382561 -0.4096075 0.10321272 -0.38338998
000390 fe 94 4d be ae 43 f4 be d6 f9 36 3e bf 0c 4f be
       -0.20076367 -0.47707886 0.17868742 -0.20219706

sequential/conv2d/Conv2D f4 [29, 3, 3, 3]
000000 f4 47 0c be 67 08 c5 bc b4 89 0a 3e 90 8d da 3d
       -0.13699323 -0.024051858 0.13529092 0.10671532
000010 39 97 82 bd d3 4e bd bc c8 13 67 3d 0b 5f 0f 3e
       -0.063765 -0.023108875 0.05641535 0.140011
000020 b9 07 07 3d a7 c9 a3 bd 77 60 e3 bb 9b db 1c 3e
       0.03296635 -0.079974465 -0.0069389897 0.15318148
000030 61 93 98 bd d8 6e c1 bd ff 78 6e 3d ba a1 e0 3d
       -0.07449985 -0.0944497 0.05822086 0.10968347
000040 e5 08 58 3d 23 90 61 3d fa fe 00 be f5 65 b2 3d
       0.052742857 0.0550691 -0.12597266 0.08710853
000050 a2 23 ff 3d 1b 78 87 bd 61 22 09 be 10 16 85 3d
       0.12457968 -0.06614705 -0.13392021 0.06498349
000060 9c 32 4f bd 78 2b d0 bd 4f 80 d9 3d 4c 1f 32 3d
       -0.050585374 -0.10164541 0.10620176 0.04348688
000070 3b 74 03 be e4 d6 79 bd 95 b5 f9 3b f9 18 70 bd
       -0.12837307 -0.06099595 0.007620523 -0.058617566
000080 d7 64 09 3b 60 50 c0 bd f8 88 9d 3d 00 46 2a 3e
       0.0020964646 -0.0939033 0.0769214 0.16628265
000090 d1 af 71 be 91 ed 53 be 0c db 29 be 55 82 81 bd
       -0.23602225 -0.20696093 -0.16587466 -0.06323687
0000a0 c8 b8 33 bd 75 b8 a2 bd 53 97 d5 3d dc d3 c7 bd
       -0.043877393 -0.07945339 0.104292534 -0.09757206
0000b0 83 6d bd 3d dd a2 36 be b1 63 9a 3c 66 4e 22 be
       0.09249403 -0.17835565 0.018846365 -0.15850219
0000c0 f4 dd ce bc 17 2a 4b 3d 67 75 0a bd 58 b4 a0 bd
       -0.02525232 0.049600687 -0.03380337 -0.07846898
0000d0 0c 6f 3c bd eb 4a ca 3d c2 4f 0a 3e d6 31 e5 bd
       -0.04600434 0.09877571 0.13506988 -0.11191146
0000e0 fe 9d df bd ca 3e 7b 3c b6 8a 5f 3d 79 39 04 be
       -0.109188065 0.015334794 0.054575644 -0.12912549
0000f0 dc 38 a5 3d 33 98 3a bd c0 e1 57 bd d2 e2 0c 3e
       0.08067486 -0.045555305 -0.052705526 0.137584
000100 0e 93 f7 bd 4e b5 40 bc b6 f6 8c bb ad 98 4d bd
       -0.12088595 -0.011761976 -0.004301871 -0.05019443
000110 08 22 33 3d bc c8 e1 bd 00 8c 25 3d f3 93 86 bd
       0.043733627 -0.11024615 0.040416718 -0.06571188
000120 0b 08 e6 3d 2c d3 c4 3d 92 99 8a 3d 7e ba f4 bb
       0.11232003 0.0961059 0.067675725 -0.0074685207
000130 bf d9 ae bd b1 74 09 3e c3 62 67 3d f7 13 af 3d
       -0.085376255 0.1342342 0.05649067 0.0854873
000140 d0 fb dd bd af c7 8d 3c 2f 88 a5 bd 9d f0 3e be
       -0.10839045 0.01730713 -0.080826156 -0.18646474
000150 ea e9 2d 3d c5 2b f0 3c a8 77 02 be 7a 17 19 3e
       0.042459406 0.029317746 -0.12740958 0.14950362
000160 52 6e 12 be f9 53 ec bd 83 50 df 3c 47 36 20 be
       -0.14299896 -0.11539454 0.02726007 -0.15645705
000170 d7 04 7c be 98 63 89 3d 38 f3 34 3d f5 f1 88 bd
       -0.24611221 0.06708449 0.044177264 -0.06686775
000180 7e ef 1b 3d 74 ef bb 3d 44 10 3e be 71 a5 07 3e
       0.038070194 0.091765314 -0.18560892 0.13246705
000190 4b 6f 07 be 0c 8c 83 3a 50 80 24 bc e6 80 0a be
       -0.13226049 0.0010036244 -0.010040358 -0.13525733
0001a0 3e 51 74 bd 36 3a 98 3d 91 e0 a6 bd 7a 13 df 3d
       -0.05964779 0.07432978 -0.081483014 0.10892387
0001b0 b2 b2 c0 3c 1c eb 8b bd ee 90 12 bd 19 6c f8 3d
       0.023522709 -0.06831953 -0.035782747 0.12129993
0001c0 2c 36 31 3e a0 6b f0 3d 6b 59 eb 3d 46 3e 95 3d
       0.17305821 0.11739278 0.114916645 0.07287268
0001d0 a3 9c 12 be 69 00 fe 3d 0b 05 d6 3d 5e ad 10 3c
       -0.14317565 0.12402422 0.104501806 0.008830396
0001e0 6c bb 13 3e 89 d1 cb bd c7 f7 0e be 50 76 08 3c
       0.14426965 -0.09952075 -0.13961707 0.008328989
0001f0 98 e1 b0 bd 10 59 bf bd 8f 4e aa bd 78 db 25 3d
       -0.086367786 -0.09343159 -0.08315765 0.040492505
000200 9c ac 1f be b3 bb 08 bd 80 19 e9 bd 33 4e 29 be
       -0.15593189 -0.03338213 -0.11381817 -0.16533737
000210 fa 3c eb 3d a3 23 c4 bd 11 75 eb bd 76 aa 30 bd
       0.1148624 -0.0957711 -0.11496938 -0.043131314
000220 cf d0 5a bd d9 1f f0 bd 37 8a 6a 3d cd 38 a5 3b
       -0.05342179 -0.117248245 0.05726072 0.0050421716
000230 56 29 37 be 06 a6 02 3e 24 a9 5e 3d 89 8b 03 be
       -0.17886862 0.12758645 0.054360524 -0.12846197
000240 58 c7 f7 bd 39 90 c0 bd 1c 06 57 be 10 aa cb bd
       -0.12098569 -0.09402508 -0.20998424 -0.09944546
000250 90 4e 1f be ac 7b 12 be 41 07 cc 3d 7c 88 ce bd
       -0.15557313 -0.1430499 0.09962321 -0.10084626
000260 21 ab 3a be 31 a7 c3 3d 1e 9c 4c be 95 8f 8c be
       -0.18229343 0.095533736 -0.19981429 -0.27453294
000270 3e f3 e5 3d e8 a4 f4 bc a3 2e 71 be 80 95 de bd
       0.112280354 -0.02986379 -0.23552947 -0.108683586
000280 4d 8a e5 bc 69 cb 47 3d 0f 19 fc 3d 4e f2 64 bd
       -0.028020049 0.04877797 0.12309467 -0.055895142
000290 b4 c7 b8 3d 8d f2 f8 3d cb dc 88 bd 63 76 d9 bd
       0.09022465 0.12155638 -0.06682738 -0.106182836
0002a0 f3 c7 51 3d 82 16 16 3d 5f a6 9e 3d 35 63 0d be
       0.051216077 0.03664256 0.077465765 -0.13807376
0002b0 28 5b d3 bd 51 af 5a 3d 9c a9 0f be 7c 31 5c bd
       -0.10320121 0.05338985 -0.14029545 -0.05375813
0002c0 f4 ac a0 3a 6e 93 00 be bc 46 cb 3d 07 eb 23 be
       0.0012258575 -0.1255624 0.09925601 -0.16007625
0002d0 cc dc 87 bd 22 7d ff 3d 90 94 1c be 77 ed 96 3c
       -0.066339105 0.12475039 -0.15291047 0.018423779
0002e0 a3 55 1b bc 30 23 92 3d d1 7f 05 3b 5d 2c 37 3d
       -0.009480867 0.07135618 0.0020370374 0.044720042
0002f0 91 35 21 be 12 e3 cb bd 71 f6 2b be a3 f1 c3 3d
       -0.1574309 -0.099554196 -0.16793229 0.09567573
000300 c4 e3 9c bc 0a c0 b8 3d 6b cb a8 bd 57 a1 12 3d
       -0.019151576 0.090210035 -0.08241924 0.035798397
000310 60 79 1d 3e e7 4b d4 bc 97 04 fc ba 04 d9 13 be
       0.15378332 -0.0259151 -0.0019227442 -0.14438254
000320 77 28 16 be c4 14 a6 bd c2 1e 98 bc b8 84 29 3c
       -0.14663874 -0.081094295 -0.018569354 0.010346584
000330 46 de d6 3d 15 4a 03 3e 35 51 df 3d 84 56 98 3c
       0.10491614 0.12821229 0.10904161 0.018595941
000340 e1 85 80 bd 95 1e f0 bd 14 5a 42 3c 37 d3 4e 3d
       -0.062755354 -0.11724583 0.011862297 0.0504944
000350 b9 d7 e6 bc 82 46 dd 3d ad 2b 26 3d 56 32 85 bc
       -0.028179036 0.10804464 0.040568996 -0.016259354
000360 33 60 62 ba 1b 0e e8 bb 7f f1 5a 3d 7b 22 ae bd
       -0.00086355506 -0.0070817596 0.053452965 -0.085026704
000370 a0 8b f1 bc f3 a6 14 3c db 6f f9 bd a6 fe 47 bd
       -0.029485524 0.009073007 -0.12179538 -0.048826836
000380 50 5d 0d 3e 82 07 c0 3d a3 72 e5 3d f1 91 41 3b
       0.13805127 0.09376432 0.11203506 0.002953645
000390 cd c4 fc bc d8 f9 fa 3d a9 74 49 bb 13 d2 2a be
       -0.03085556 0.12254685 -0.00307397 -0.166817
0003a0 2a 70 0e be 5f d8 0f be d0 6e 07 3e 5c dc 36 3e
       -0.13909975 -0.14047383 0.13225865 0.17857498
0003b0 86 26 bd 3d 18 87 49 bd 3f 1c 6a bd f1 d7 89 3d
       0.092358634 -0.0492011 -0.057155844 0.06730641
0003c0 d1 6e f8 bc 41 d6 cb bd d4 4e 9a bd d3 df 70 3c
       -0.030326279 -0.09952975 -0.075345665 0.014701801
0003d0 7d 9b c1 3d b5 05 0e 3d bc ab 75 3b 09 d7 e8 bd
       0.09453485 0.03467341 0.0037486395 -0.1136914
0003e0 6f 56 32 bd 46 81 a1 bd 24 08 c1 3d ca eb 29 3c
       -0.04353946 -0.07885985 0.09425381 0.010371158
0003f0 14 94 34 bd 5c e4 14 3e 8c a7 74 3d d0 92 76 bd
       -0.04408653 0.14540237 0.059730098 -0.060198605

sequential/conv2d_1/Conv2D f4 [29, 3, 3, 29]
000000 15 55 7d 3d c6 9e 37 bd a7 b2 07 3d a9 c8 c0 3c
       0.06184872 -0.044829153 0.03312936 0.023533182
000010 76 ed b3 3c 7b 5a 8d bd 1d c8 c6 bd 52 af 8b bd
       0.021963816 -0.069020234 -0.09706137 -0.06820549
000020 db 12 bf 3d 95 d1 7b 3d 28 62 5d 3d 12 66 93 bd
       0.09329768 0.06147917 0.054048687 -0.07197203
000030 6a c4 49 bd d6 9f 08 be d6 69 91 bc 56 4c b6 3d
       -0.04925958 -0.13342223 -0.017750662 0.08901279
000040 24 07 cb bc 99 a1 c1 bd 19 64 33 bd db 54 ce bd
       -0.024783678 -0.094546504 -0.043796632 -0.10074779
000050 69 a9 03 bc e3 a7 db 3d 20 02 6d bd b7 fe 58 bd
       -0.008035996 0.10725381 -0.057863355 -0.05297729
000060 59 14 21 bb bb 14 78 3a 17 23 5f bd ef 47 d1 bd
       -0.0024578779 0.00094635383 -0.054476824 -0.10218798
000070 db 66 13 3d e0 7f 18 3d 38 a5 4c be ff 27 83 3d
       0.035986762 0.037231326 -0.19984901 0.06404113
000080 4b dd 83 bd e4 16 8c 3d 1c f9 09 bd 54 1c 7e bd
       -0.06438693 0.068403035 -0.033684835 -0.062038735
000090 6c cb 7c bd 29 91 c7 bd f5 a9 8b 3c 2c 34 c2 bd
       -0.061717436 -0.09744484 0.017048815 -0.09482607
0000a0 56 d0 6c bd 95 57 a5 bd 5e 94 69 3c ab 50 cc 3c
       -0.057815872 -0.080733456 0.014256565 0.02494081
0000b0 4d 91 07 bd f9 07 93 3d 50 c5 80 3d 9c 0e c6 3d
       -0.033097554 0.07179255 0.062876344 0.09670755
0000c0 a2 a6 2e bd 95 97 36 3d 19 82 63 3d 84 9f 6e 3d
       -0.042639382 0.044578154 0.055543993 0.058257595
0000d0 05 e1 be bd c2 49 8d 3d b1 52 f9 bd bf ed e6 bd
       -0.09320263 0.06898834 -0.12173975 -0.11275815
0000e0 ee 7c 20 bc 5f 9f 5f 3d b3 bc d7 bc e0 c0 59 be
       -0.009795411 0.054595347 -0.026335096 -0.21264982
0000f0 11 34 96 bd 28 8f 0a 3d 1e b9 ce bc 89 b7 15 bc
       -0.0733415 0.03382793 -0.025234755 -0.0091379965
000100 5e 13 92 3d b6 78 3e bc 1b e5 68 bd b4 44 22 3c
       0.071326 -0.011625459 -0.056859117 0.009904075
000110 ad 27 04 3e 87 8b ac bc 38 60 fe bc a9 f1 e7 bd
       0.1290576 -0.021062626 -0.03105174 -0.1132539
000120 83 86 19 bd a1 b6 ef 3c 49 2b 12 bc d8 0b d2 3d
       -0.037481796 0.029261889 -0.008921453 0.10256165
000130 6e cf aa 3c 15 e2 6c bd d1 ba b7 bd 6a 10 08 be
       0.020850863 -0.057832796 -0.08971179 -0.13287511
000140 e5 3e a7 bc fe 9e 82 bc 42 9a cd bc c3 b1 b0 3d
       -0.020415733 -0.015944954 -0.02509797 0.08627655
000150 34 40 d9 bb f9 88 99 bd d7 bf 6a bd 2a 09 25 3d
       -0.006629968 -0.074968286 -0.05731186 0.040291943
000160 cf de 9b bc a5 a2 13 3c b7 f6 1f bd a5 ec eb bc
       -0.019027142 0.009010945 -0.039053645 -0.028799364
000170 ff b0 90 bd d3 19 c7 bd 11 46 60 bd 52 1f c8 ba
       -0.07065009 -0.097217225 -0.05475432 -0.0015268123
000180 4c 49 b1 3d ac 2e c5 bd 16 40 1c bd da 2f dd bd
       0.086565584 -0.096280426 -0.038147055 -0.108001426
000190 13 1f ac 3c ac 19 05 3d 68 cc 25 3d 8f bb 98 3d
       0.021010911 0.032495186 0.04047814 0.07457649
0001a0 ba 58 45 bd 97 c1 00 3d e8 e9 97 bd 35 c1 b3 bd
       -0.04818032 0.03143462 -0.07417661 -0.08777086
0001b0 a7 72 6a 3c 93 32 81 3c 15 f4 27 bd 17 b0 cf 3c
       0.014309562 0.015771186 -0.04100426 0.02535252
0001c0 48 38 8d 3c 14 1a 1c 3c b3 4a fa 3d 1c 6d bc bd
       0.017238751 0.009527702 0.12221279 -0.092004985
0001d0 1a a0 75 bd e7 de ac bd 60 67 39 ba df bb 30 3d
       -0.059967138 -0.08440953 -0.0007072594 0.043147918
0001e0 0f 49 75 bd 5d bb f9 bd 28 39 c2 bd 56 6a 9f 3d
       -0.059884127 -0.1219394 -0.09483558 0.07783954
0001f0 bc df cf bc 10 79 7b 3d c6 da a6 bb 85 31 36 3d
       -0.02537524 0.06139475 -0.005091998 0.04448082
000200 67 7c 73 3c c6 48 bc bd 86 ef da bb 56 15 73 3c
       0.014861203 -0.09193568 -0.0066813855 0.01483663
000210 a2 25 67 3c 10 09 c5 3d ba d5 fe bc b2 5c 0c 3d
       0.014108093 0.09620869 -0.031107772 0.03426809
000220 03 b0 9d 3d 3c 55 0f 3c 2b ea ee 3c 12 1b b1 3d
       0.07699587 0.008748349 0.029164394 0.086477414
000230 d2 ee d5 bc 32 26 12 be 12 f9 04 bc aa 42 12 bd
       -0.026114855 -0.14272383 -0.008116024 -0.035708107
000240 0b 07 82 bc 7b 6a 8c bd 99 1d e0 bd b1 d8 8c 3c
       -0.015872499 -0.06856247 -0.10943145 0.01719317
000250 d4 73 3b bd 24 9d 9c 3d 78 ad 6e bd 54 bb d6 3c
       -0.04576476 0.0764716 -0.0582709 0.026212372
000260 da 10 97 bd c4 de 8c 3c db 8a 00 3d cb 23 e6 bd
       -0.07376261 0.017196067 0.031382423 -0.11237296
000270 84 df 2e 3b f8 62 89 3d 52 ef 16 be c8 2b 90 3b
       0.0026683519 0.0670833 -0.14739731 0.0043997504
000280 97 74 09 3d 5b 70 2f 3d 32 6b eb bc 3c e5 b2 bd
       0.033558454 0.04283176 -0.028737638 -0.08735129
000290 a8 dd 6e bd e7 b2 86 3d 44 7e 92 bd b6 c7 ce 3c
       -0.058316857 0.06577092 -0.071529895 0.025241714
0002a0 e8 91 23 bd f2 5c 28 3d 36 c0 b1 bc 14 9f 9e bd
       -0.03993407 0.041104265 -0.021698099 -0.077451855
0002b0 e7 7f ae 3d 54 84 03 be 9c 7a f4 bb 0b 0f b3 bd
       0.08520489 -0.12843448 -0.0074609052 -0.087431036
0002c0 1f 1b d1 3c 6b ab 19 3d 25 5e 95 bb 98 02 8a bd
       0.025525628 0.037516993 -0.004558342 -0.06738776
0002d0 0c 92 ec bd e8 2c 83 bc 79 b9 b3 bd 05 2c ee 3c
       -0.11551294 -0.016012624 -0.087756105 0.029073725
0002e0 cb 32 3b bd 0a 50 96 3d 01 99 42 bd 91 80 84 bd
       -0.045702737 0.07339485 -0.047509197 -0.064698346
0002f0 d0 89 6a 3d f5 71 b1 3d e2 6e 2b bd 24 0f 76 bd
       0.057260334 0.08664314 -0.041853793 -0.060073033
000300 b7 10 cb bb f1 35 89 bd ec 75 1b 3d 07 bf cb bd
       -0.006197061 -0.06699742 0.037954256 -0.09948545
000310 e8 c4 e3 bc af 17 81 bd e3 0a 1d 3d 40 35 05 be
       -0.027803853 -0.063033454 0.03834046 -0.13008595
000320 7a 85 1e bd 8b 38 66 3d a5 e7 47 3d 58 eb e4 3c
       -0.038701512 0.056206267 0.048804898 0.027944252
000330 25 34 b5 bd f6 e5 44 3d a4 2f 69 3d dd b5 13 bd
       -0.088478364 0.04807087 0.0569302 -0.03606211
000340 36 c6 85 3d 84 62 59 bd 61 1b 2b 3c 84 45 60 bd
       0.06531946 -0.053072467 0.010443539 -0.054753795
000350 32 af cf 3d a1 bf 74 3d 7a 4b e6 bd 59 d0 79 bc
       0.10140838 0.059753064 -0.11244865 -0.015247428
000360 b2 ac dc 3c 47 8e 60 3d 54 d9 8a 3d 29 08 86 bd
       0.026937816 0.054823186 0.06779733 -0.06544525
000370 fc 4d b9 3d 3f fc 81 bb 9c da 80 bd d8 aa dd 3d
       0.090480775 -0.0039668377 -0.062916964 0.108236015
000380 27 a7 0b bc 85 a0 58 bd 12 4c 7b bc b9 ee 84 bd
       -0.008523739 -0.05288746 -0.015337961 -0.06490845
000390 fd a0 bb bd 8f 2a 36 3d 86 17 92 ba 69 6d f7 bc
       -0.091615655 0.04447418 -0.0011145927 -0.030203538
0003a0 e1 a4 26 bd cc 11 4f bd c0 d4 61 bd ad 7a 92 3d
       -0.040684585 -0.05055408 -0.055134535 0.07152305
0003b0 9f 6b 6e bb ea 0f 55 bd 66 52 0b be d5 be df bb
       -0.0036380065 -0.05201713 -0.13605651 -0.006828169
0003c0 f2 bd e9 bc a2 11 cd 3a bf 0e 98 bd f2 1c ae bd
       -0.028532956 0.0015645514 -0.074246876 -0.08501615
0003d0 c0 03 25 bd 38 7f 40 bc ad 1e 83 bd af 91 af 3c
       -0.04028678 -0.011749081 -0.06402335 0.021431772
0003e0 d1 04 a6 3c 8b d7 1a 3d f9 fe bf 3d fa 20 98 3b
       0.020265969 0.037803214 0.09374804 0.004642603
0003f0 21 8e 2d 3c 06 04 5b bd 00 93 a1 bd 8e f1 b5 bd
       0.010592968 -0.053470634 -0.07889366 -0.088839635
