src/final_model.tflite (tflite, 767944 bytes, 16 tensors)

sequential_16/dense_43/BiasAdd/ReadVariableOp f4 [11]
000000 d3 a9 96 3d 1d a1 d3 bb 0c 3a eb bd 1a a7 59 bd
       0.0735661 -0.006458415 -0.11485681 -0.053137876
000010 d8 83 de bd 49 82 e3 3b 87 c4 d6 3c 27 b6 5c bd
       -0.10864991 0.0069430214 0.026216758 -0.05388465
000020 af d6 ab 3c 3b 3e 29 3e 39 9d 6b 3d
       0.020976393 0.16527645 0.057522986

sequential_16/dense_42/BiasAdd/ReadVariableOp f4 [29]
000000 57 fd f6 bd 3d 7a 58 3b 80 0e 00 3e 6b 54 77 bd
       -0.120600395 0.0033031844 0.12505531 -0.06038324
000010 54 bf c4 3a 15 3b a8 3b 8c 15 31 3e 06 44 06 bd
       0.0015010634 0.0051339963 0.17293376 -0.032779716
000020 00 9d 91 3d 30 ed 8d 3c 1d 1f b0 bd fb 4c 84 3d
       0.071100235 0.017325014 -0.085996844 0.06459995
000030 fb 85 66 bb 0b a3 80 3d f3 b5 1f 3d 8b eb d0 bc
       -0.0035175073 0.06281098 0.03899188 -0.02550294
000040 5d 19 7e 3c 67 2e f3 3c 20 14 bf 3c d4 de 95 3c
       0.015508977 0.029685212 0.023325026 0.01829473
000050 91 e1 be 3d 5b 52 d7 bd 75 0a 5e 3d cc 88 91 3d
       0.09320367 -0.10513755 0.05420919 0.0710617
000060 a4 c6 c4 bb d6 01 02 3d 81 7c fd bb 48 ff ce bc
       -0.006005125 0.031740032 -0.0077357893 -0.025268212
000070 3f 30 18 3e
       0.14862154

sequential_16/dense_41/BiasAdd/ReadVariableOp f4 [29]
000000 d5 1d 02 3d 24 73 d2 bd 3b 2d 94 ba 6c ad c1 3d
       0.03176673 -0.102758676 -0.0011304984 0.09456906
000010 f9 53 47 bd 31 7c c6 bc 00 00 00 00 7e 04 34 bd
       -0.048664067 -0.024229141 0.0 -0.043949597
000020 b4 d7 6a ba 00 00 00 00 ac 26 c4 bc 48 be 92 bd
       -0.0008958534 0.0 -0.023944221 -0.071651995
000030 5e f4 1f bd 5b 81 87 3d 68 ba 97 3c 29 5f fb bd
       -0.039051406 0.066164695 0.018521503 -0.1227401
000040 d1 4e 87 bd 28 9f d4 3d 6a ef f9 bb 4c dd 80 bd
       -0.0660683 0.10381919 -0.0076274173 -0.06292209
000050 6d 9d a9 3b ca 7c a8 3c 38 c9 c4 bb 47 7b 4b 3e
       0.0051762373 0.020567317 -0.0060054325 0.19871245
000060 0f a4 4f 3e 9e 25 ae 3d cf 4b 77 3d c8 8f d6 3d
       0.20277427 0.08503269 0.06037503 0.10476643
000070 27 c4 a2 3c
       0.019868923

sequential_16/dense_40/BiasAdd/ReadVariableOp f4 [29]
000000 b0 c7 c4 bb d9 01 97 bc da e1 2a 3d 39 c8 c4 bb
       -0.00600525 -0.018433498 0.041719295 -0.0060053137
000010 ea c5 c4 bb cf c7 c4 bb f8 c8 c4 bb a6 d4 a8 bb
       -0.0060050385 -0.0060052644 -0.0060054027 -0.005152303
000020 6d bd c4 bb 7d 45 d6 ba 09 88 a7 bb 5e 50 bf bb
       -0.0060040266 -0.0016347613 -0.005112652 -0.005838438
000030 0b 82 2f 3d 39 27 cb bb 6a eb b5 bb 0e c9 c4 bb
       0.042848628 -0.006199744 -0.005551745 -0.006005413
000040 9e 5f 94 bb e2 f1 13 bd 36 17 af bb bb 37 d4 bc
       -0.004528 -0.03611935 -0.005343343 -0.02590548
000050 33 95 0b 3d 7d 4d 9f bb 56 6b 83 3d b6 c6 c4 bb
       0.034077834 -0.0048615322 0.06416957 -0.0060051335
000060 e1 c7 c4 bb 1d 6f c9 bd 8f c8 ae bb 8d 91 a1 3d
       -0.0060052727 -0.09835646 -0.005333967 0.0788909
000070 1a c7 c4 bb
       -0.00600518

sequential_16/conv2d_65/BiasAdd/ReadVariableOp f4 [29]
000000 07 e9 42 bd f5 05 a0 3d 4a f1 14 bd 19 43 d5 3c
       -0.047585513 0.07813636 -0.036362924 0.026032971
000010 10 2a 96 ba 84 a4 2f bc 0a 95 51 bd 1d b5 97 bc
       -0.0011456627 -0.010720376 -0.051167525 -0.018518979
000020 88 09 41 bd bd 06 9e 3d f3 78 9c bc 00 09 b5 bc
       -0.04712823 0.07716129 -0.019100642 -0.022099018
000030 0d 3b 5f 3d b8 30 6d bd 45 0b ac bc 96 2a 1b 3d
       0.054499675 -0.05790779 -0.021001467 0.03788241
000040 e1 9a b0 3d 41 dc 3a 3d 7c 09 8f bc 9b ec 34 bd
       0.08623291 0.045620207 -0.017460577 -0.044170957
000050 97 6a cf 3c c2 2f a0 3d f1 52 aa 3d 10 13 3d 39
       0.02531938 0.07821609 0.08316601 0.00018031546
000060 56 6a 0e bc c8 92 50 3c 2f d7 06 bc 2c f7 32 3d
       -0.008692345 0.012730308 -0.008230015 0.043692753
000070 da da b3 3c
       0.021954942

sequential_16/conv2d_64/BiasAdd/ReadVariableOp f4 [29]
000000 6f 1f 0c bb e4 68 8e bc 3e 33 97 bd 66 82 b7 3c
       -0.002138104 -0.017384 -0.073828205 0.022401046
000010 cb cf b5 3b e7 87 a3 3c d1 84 2f 3d 32 bd 8f bd
       0.0055484525 0.019962264 0.042851273 -0.07018508
000020 d8 bf 50 3c 1e 23 ee bc d3 8f 89 bd e0 63 06 bc
       0.012741052 -0.02906948 -0.067168854 -0.008202523
000030 d4 da 06 3b c7 cf 63 bd 9a 61 68 3d ce 9a 88 3d
       0.002057721 -0.055618074 0.056733705 0.06670152
000040 0d 32 bf 3c 17 d2 43 3b 15 05 f7 bc bb 59 61 3d
       0.023339296 0.0029879862 -0.03015379 0.055017214
000050 8f dc 86 3d bf 9e cd 3b b6 1a f6 3c bc 4f f9 bc
       0.06585037 0.0062750275 0.030042034 -0.030433528
000060 88 ca 0e bd bd c8 81 3b c0 dc dc 3b 5a 00 57 3d
       -0.034861118 0.0039606974 0.0067401826 0.05249057
000070 16 72 8e 3c
       0.017388385

sequential_16/conv2d_63/BiasAdd/ReadVariableOp f4 [29]
000000 46 fe 47 bc f3 5b 6f bc 4b 08 16 3d 3a 9d 71 3d
       -0.01220662 -0.014609325 0.036629003 0.058987834
000010 c1 a7 1f bd eb 23 b0 3b 42 c8 1b bd 46 14 3e 3b
       -0.038978342 0.0053753755 -0.038032778 0.0029003783
000020 3f c7 c5 bc a6 3c bf bb 85 b7 10 bd 11 74 52 3d
       -0.02414286 -0.0058360873 -0.035331268 0.05138022
000030 a3 d2 ab 3c 9f 10 2d bd 7a 18 67 3d df 5e 42 bc
       0.020974463 -0.04225218 0.056419827 -0.011863439
000040 28 e6 20 3d ed 72 40 3b fe c0 47 bc 50 f4 08 bd
       0.039281994 0.0029365376 -0.012192009 -0.03343612
000050 a3 8b 07 bd 89 ff fa bc 4b 8b 56 3d 6c b8 32 bc
       -0.033092152 -0.030639427 0.052378934 -0.010908227
000060 5c 84 ef bc 9a ba 35 bd 52 ea e3 3c ec 52 38 bc
       -0.029237919 -0.04436741 0.027821694 -0.011250239
000070 b6 bb 03 bd
       -0.032161437

sequential_16/conv2d_62/BiasAdd/ReadVariableOp f4 [29]
000000 43 ac 4c 3d 5b 27 8b 3c 2c 60 65 bd 88 0f e2 3c
       0.04996897 0.01698654 -0.05599992 0.027595297
000010 70 c3 ec bc cb ed 49 3b 65 f7 bc 3b 9f f2 9b 3b
       -0.028901786 0.0030811902 0.0057667964 0.0047591473
000020 a7 83 7a 3c 4f 0d 1b bd d7 86 f4 bb 83 76 1b bd
       0.015290177 -0.03785449 -0.007462363 -0.03795482
000030 96 c2 3b ba 90 e5 9e bd b0 cc 02 3c d3 94 79 bd
       -0.00071624795 -0.07758629 0.007983372 -0.060932945
000040 ae c4 cc bc 98 83 f1 3a f4 6f 88 bc 5f 52 a6 3b
       -0.024996128 0.0018426059 -0.016654946 0.0050757374
000050 02 56 6b 3d 44 2e b8 3b 0f 09 13 3b 31 79 86 3c
       0.05745507 0.0056207497 0.002243582 0.01641521
000060 56 dc f2 39 d0 f4 5f bc da c2 df 3b 1f 55 91 3b
       0.00046322 -0.013669208 0.006828648 0.004435196
000070 4e ca b3 bd
       -0.08778821

sequential_16/dense_40/MatMul f4 [29, 5684]
000000 9e 4f 09 bc 4a 4f 8f 3c b8 7d de 3c 5b 69 4b 3c
       -0.008380799 0.017493863 0.027159557 0.012415255
000010 20 12 c6 bc dc 58 2c bc e0 24 21 3b c7 4f 88 bc
       -0.024178565 -0.010519233 0.002458863 -0.016639603
000020 1a e4 5f bc 30 99 63 bc 11 03 a0 bc a0 5b f3 bc
       -0.0136652235 -0.013891503 -0.019532712 -0.029706776
000030 54 a7 16 bd 4c 9b e2 bc ef a8 d3 3b ff 21 92 3b
       -0.03678067 -0.027661942 0.0064593474 0.004459619
000040 a2 1b e9 bc 28 7e 0b bc 60 9d 35 3b e2 95 c9 bb
       -0.02845556 -0.008513965 0.002771221 -0.0061519006
000050 66 5a 2b bc da 69 6a 3c 8a 58 ac 3b 40 74 ce 3c
       -0.010458564 0.014307464 0.005259578 0.025201917
000060 80 de 10 bc 07 0f e9 bc 56 ba 2f 3c d5 a6 bc bc
       -0.008842111 -0.028449548 0.010725578 -0.02302877
000070 62 a5 1b bc c3 be f8 bc bc 3e 04 3d e0 fc 96 ba
       -0.00949988 -0.0303644 0.03228639 -0.0011519454
000080 d1 20 04 3c 25 e5 23 3c aa 11 36 3c c4 a4 c9 3c
       0.008064465 0.010003363 0.01111261 0.0246147
000090 ab f3 4b bc f0 af 0a bd 76 65 80 3c c2 7e ff ba
       -0.012448232 -0.033859193 0.01567338 -0.0019492733
0000a0 24 f1 16 bd fb 7b b2 3b 5c 9f 9a 3c 9f c1 84 bc
       -0.036851063 0.0054469085 0.018874817 -0.016205607
0000b0 df ae a3 3b 9d 31 ea 3b 0a f4 35 3c d4 94 56 3c
       0.0049952115 0.0071470276 0.011105547 0.013097007
0000c0 b0 26 8c bb 01 ab 01 bd a1 18 04 3b 29 93 f9 bc
       -0.004277073 -0.031657223 0.0020156282 -0.03046568
0000d0 ce 1b c6 3c 90 a6 c0 3c 15 f9 c6 3b 3f 9b 36 3b
       0.02418318 0.023516923 0.0060721734 0.002786353
0000e0 e9 f9 69 3b 88 3d 4a bc a1 20 e9 bc 0a 75 f2 bc
       0.0035701937 -0.012343772 -0.028457941 -0.029596824
0000f0 96 77 b8 3c 8d f8 e9 bc bc 44 b4 3c 32 a9 8c 3c
       0.02251796 -0.028560901 0.022005431 0.017170522
000100 fd 5c 67 bc 65 27 ab bc 84 9d a4 3c 96 08 fd bc
       -0.014121291 -0.020892808 0.02009464 -0.030887883
000110 a8 5c d2 bc ce 95 3f 3c 41 dc 6d 3b c5 ba a6 3b
       -0.025678948 0.011693431 0.0036294612 0.0050881826
000120 40 76 b0 bc 4c 54 a1 bb 12 b9 cf bb ff b5 10 bd
       -0.021540761 -0.004923379 -0.006339201 -0.035329815
000130 3a ca 83 3c de 44 44 bc a1 f8 d9 bc d2 c9 98 3c
       0.01608764 -0.01197931 -0.026607813 0.018650923
000140 dc e7 b3 3c 6b de 27 bc 2b b7 05 bd a1 47 fc bc
       0.021961145 -0.0102459 -0.032645386 -0.030795874
000150 f4 40 90 3c bb be 10 bd a8 09 1c bd 2c f1 0b 3c
       0.017609097 -0.035338145 -0.038095146 0.008541387
000160 7c 8d fe 3c 64 a8 10 3c 7f 43 aa 3c 3b d6 67 bc
       0.031073324 0.00882921 0.020784138 -0.014150198
000170 fc 6e c9 bc ef b5 04 bc 63 76 97 3b f5 6f 01 3c
       -0.024589054 -0.008100017 0.004622267 0.007900228
000180 0f 7e 52 bb 53 06 bb 3c 87 bb d3 bc a9 84 d4 bb
       -0.0032118594 0.022830164 -0.025846256 -0.006485541
000190 e5 48 7e 3c 46 2f c2 3c 2d d0 54 bb bf c4 b2 bc
       0.015520309 0.023704182 -0.0032472715 -0.021822331
0001a0 3b d7 bc bc 2e d7 b4 bc b7 05 97 3a d6 83 c0 bc
       -0.023051849 -0.022075262 0.0011522089 -0.023500364
0001b0 40 28 a4 3c 1b cd b4 3c 16 1c 60 3c 17 64 c7 3c
       0.020038724 0.022070458 0.013678571 0.024339719
0001c0 8e 69 e9 3a 76 d6 ad 3c e8 ba 09 bd 65 25 9a bb
       0.0017807947 0.021220427 -0.033625513 -0.004704165
0001d0 88 02 ae bc 90 3b b3 3c 1a 80 3c bc be 58 16 bd
       -0.021241441 0.021878988 -0.011505151 -0.036705725
0001e0 97 1b d1 bc a8 c9 4d 3c fa e4 8e 3c 8e 04 7a bc
       -0.025525851 0.012560286 0.017443169 -0.015259875
0001f0 0c f3 99 bb 02 5d b1 3c 2f b7 40 bc 72 72 cb 3c
       -0.004698163 0.021650795 -0.011762424 0.024834845
000200 aa cc d4 bb 66 ac 07 bd 8f 7a de bc a8 be 06 3c
       -0.0064941244 -0.033123396 -0.02715805 0.008224167
000210 3c 8a f3 bc 5e 0a 12 3c 94 d1 0a 3c d6 3d 24 bc
       -0.029729001 0.008913605 0.008472819 -0.010024508
000220 ba a2 03 bd 38 c6 39 3a 60 61 85 ba f5 8c 51 bc
       -0.03213761 0.0007086727 -0.0010176115 -0.012789954
000230 08 dc 54 bc 3a e6 c0 3c e8 95 ae ba c5 0e 8f 3c
       -0.012991913 0.02354728 -0.0013319822 0.017463097
000240 89 d7 09 bd f8 56 76 3c aa 80 9f bc b0 45 5b bb
       -0.033652816 0.015035383 -0.019470531 -0.0033458285
000250 81 28 4b 3c 0d 82 ef bb 78 71 cf bb cd 03 14 3c
       0.012399794 -0.0073092044 -0.006330665 0.009034109
000260 c0 66 df bc aa cb 9d bc b6 7d 07 bd 2b 52 7d 3c
       -0.027270675 -0.019262154 -0.03307887 0.015461485
000270 88 88 9b 3c a3 67 86 bc fe 82 b3 bc a0 a9 d0 bb
       0.018986002 -0.01640684 -0.021913048 -0.006367877
000280 18 ce 3b bc 30 24 ae bc 50 08 63 3c d4 ab 34 3c
       -0.011462711 -0.02125749 0.013856962 0.011027295
000290 01 32 9c 3c b8 07 f9 3c 1d 0e 02 bc 3b 60 cd bc
       0.019066812 0.030399188 -0.007937935 -0.0250703
0002a0 a1 09 16 bd 25 c9 62 3c 3d 8e c9 bc 11 40 c9 bc
       -0.036630277 0.013841902 -0.024603957 -0.024566682
0002b0 83 bc cb bc 2f f6 15 bd 7c 7e f0 bc 52 0c 05 bc
       -0.024870163 -0.036611732 -0.029357187 -0.008120613
0002c0 48 0c d0 3c 82 74 1d 3a 74 6c a4 3c 94 fe 51 bc
       0.025396481 0.0006006436 0.020071246 -0.012817044
0002d0 48 d9 8d bb 91 85 fb bc a3 6e 78 3c 41 97 a1 3c
       -0.0043288805 -0.030703338 0.015163097 0.019725444
0002e0 99 10 c5 37 ef ea 99 3c 94 08 2a bc 8a ff 19 39
       2.3491959e-05 0.018788783 -0.010378022 0.00014686413
0002f0 22 99 e7 bc c5 67 ed bc b1 bf f4 3b 19 e9 19 bb
       -0.028271262 -0.028980145 0.0074691405 -0.0023484884
000300 60 c0 37 bc 70 0b a8 bc 44 ee 13 3c 03 00 fe bc
       -0.011215299 -0.020513266 0.009028975 -0.031005865
000310 09 ae b4 bc 2e b7 8c bc c6 16 49 3c 50 90 e4 bc
       -0.022055643 -0.01717719 0.012273496 -0.027900845
000320 c8 9a 9f 3c 79 bc 99 bc 31 95 18 3c 48 a1 81 3c
       0.019482985 -0.018766629 0.009312914 0.015823975
000330 20 e2 9e bc 0c e8 b0 bb 1c 2b a3 bb 0e 32 c6 3c
       -0.019394934 -0.005398756 -0.0049795043 0.02419379
000340 3f 73 dc bc 5c c8 fc 3c 23 6e 09 bc f5 1b 86 3c
       -0.026910422 0.030857258 -0.008388075 0.016370753
000350 f8 37 77 3c 66 cc 4f 3b 33 7a 71 bc 7f 5b 94 3c
       0.015089028 0.0031707524 -0.014738607 0.018110035
000360 4f a2 aa 3c ac 5a b2 3c 76 4b 93 3b 7d 87 01 3b
       0.020829348 0.021771751 0.0044950796 0.0019764595
000370 d3 7c cc 39 a0 39 d4 bc 4f 16 cc 3c 88 39 d5 bc
       0.00039002913 -0.025906384 0.024912981 -0.02602841
000380 06 4a 03 bc 50 ea a1 3c c8 13 36 bc c9 b0 03 bd
       -0.008013254 0.01976505 -0.011113115 -0.032151017
000390 99 58 85 bc a3 65 a5 3c 3a ac 00 bd 9a 2a 26 bb
       -0.016277598 0.020190066 -0.031414248 -0.0025354982
0003a0 d4 cc 01 bd 8c a5 17 3c 80 8a d1 3a 30 8f 1f bc
       -0.03168948 0.009255778 0.0015986711 -0.009738728
0003b0 de 48 f3 3b fc f0 8d bc 71 78 f2 bc c6 08 18 bc
       0.007424458 -0.017326824 -0.029598447 -0.0092794355
0003c0 51 c3 ce bc df 94 90 bc 74 5f 0b bc 64 fe c4 bc
       -0.025239618 -0.017649112 -0.0085066445 -0.024047084
0003d0 56 6c a8 3c db f6 b4 bc fa 88 ee bc 74 0e f2 bc
       0.020559471 -0.022090366 -0.02911805 -0.029547907
0003e0 83 8c bb 3c 5c 6f f6 3a ee 25 b5 3c dc 8f 82 bc
       0.02289415 0.0018801498 0.022112813 -0.015937738
0003f0 7c a6 54 3c 3a c3 11 3b 2c eb 94 bb fc 5b 32 bc
       0.012979146 0.0022241608 -0.0045446362 -0.010886189

sequential_16/dense_41/MatMul f4 [29, 29]
000000 d4 e9 0a 3e 01 48 08 bd 84 ca 97 3e 29 1a c5 bc
       0.13565761 -0.033271793 0.29646695 -0.024060326
000010 60 b3 f7 3c c2 75 0e be 28 75 92 3e 6a b0 92 bd
       0.0302369 -0.13912109 0.28605008 -0.071625546
000020 e0 ef e7 bd a5 bd a5 bd 57 34 7f 3e 74 9b 8b 3d
       -0.113250494 -0.080928124 0.2492231 0.0681676
000030 74 46 57 3d c5 7f 6e be d8 b6 4c 3d 3e 84 e8 3d
       0.052557424 -0.23290928 0.04997906 0.11353348
000040 9f 31 5e 3d d1 fb 84 bd 89 14 45 be 9e bc 7f 3e
       0.05424654 -0.06493343 -0.19246115 0.24974295
000050 c6 4e 59 3e 11 bd 29 bd 76 4c 24 3e 8c 58 5b bd
       0.21221456 -0.041440073 0.16044793 -0.05355124
000060 17 a5 8b 3e 60 64 20 be e3 4c 59 3e 8c 74 8d be
       0.2727439 -0.1566329 0.21220736 -0.2762798
000070 0f 0f 73 3b 3c f1 0f be 2b fb 4f bd 76 a8 1b be
       0.0037087833 -0.14056867 -0.05077664 -0.15200981
000080 33 db 15 be df 5d 05 bd e2 0c 67 be 5e 06 9a be
       -0.14634399 -0.032560226 -0.22563508 -0.30082983
000090 9a 09 0c be ff bb 08 be 39 18 18 be 7d 69 60 be
       -0.13675538 -0.13352965 -0.1485299 -0.2191524
0000a0 fb 83 d9 bd bb 78 72 be 2c e6 19 3e 56 70 e1 3d
       -0.106208764 -0.23678868 0.1502921 0.110077545
0000b0 d8 03 89 3d f1 e7 93 3e 4c eb 64 be 06 05 7e be
       0.06690186 0.28887895 -0.22355384 -0.24806604
0000c0 eb ab 5a 3e b7 d8 47 be 44 bf 9e 3e e6 b4 6b 3e
       0.21354644 -0.19516264 0.310053 0.23018226
0000d0 7c 93 06 be 65 7b 80 be d5 7d 2d 3e a7 81 fd bd
       -0.13142198 -0.25094143 0.16942532 -0.12378245
0000e0 ab 8d 54 3e c0 f8 31 3e 56 9d 20 be 53 89 88 bd
       0.20757167 0.17380047 -0.15685019 -0.066668175
0000f0 c1 c9 ba bd ad c3 98 3e 74 95 51 bd fe bc 7f 3c
       -0.09120513 0.2983679 -0.05116792 0.015609024
000100 de 11 94 3e 60 de 5e 3e 9e c2 91 3e 5d 5d 5a 3e
       0.28919882 0.21764517 0.28468794 0.21324678
000110 29 26 61 3d 16 6f 31 3e 55 85 05 be eb d9 8d 3e
       0.054968033 0.17327532 -0.13039143 0.2770532
000120 eb d1 45 be a2 d1 17 bd 38 19 38 3d ed f6 34 3e
       -0.19318359 -0.037065156 0.044945925 0.1767232
000130 6e 68 92 3e 1e 84 0d be 24 b7 97 be 7e f7 9d 3e
       0.285953 -0.1381993 -0.29631913 0.30852884
000140 32 7b db 3c 76 cd 7a 3e d0 12 47 3d 4c 9c 59 3e
       0.026792143 0.2449244 0.048601925 0.21251029
000150 37 13 8a 3e 35 9f 06 3e 46 58 06 3e 2e fc 1b 3e
       0.26967785 0.1314667 0.13119611 0.15232918
000160 37 ef 44 be f7 ee fc 3d 32 0d b3 bd 82 02 52 be
       -0.19231878 0.123502664 -0.08742751 -0.20508769
000170 b6 27 b6 bd 9e 9c 62 be 8d 72 3d be ea 17 0d be
       -0.08894293 -0.22130057 -0.18500729 -0.13778654
000180 30 91 5f be 60 63 62 3e 7e 61 93 3e 35 60 e6 bd
       -0.21832728 0.22108221 0.28785318 -0.11248819
000190 80 60 b5 3c a8 32 82 3e 08 75 9d be 7d ff 42 3e
       0.022140741 0.25429273 -0.3075335 0.19042774
0001a0 ed 71 20 be 36 fe 21 3e 9a f3 1d 3e 98 fc 01 bb
       -0.15668459 0.1581963 0.15424958 -0.0019834395
0001b0 13 95 20 be 03 93 23 be 60 88 11 3d 6a 8b 98 3e
       -0.15681867 -0.1597405 0.035530448 0.29793864
0001c0 2d 0c 8e be 44 91 5f 3e f7 10 d2 3c 4e 1a 74 be
       -0.27743664 0.21832758 0.025642855 -0.2383816
0001d0 8a 62 6d be d5 a3 8f be 85 56 4b 3e e5 d3 18 be
       -0.23182121 -0.2805468 0.19857223 -0.14924581
0001e0 55 7c 46 bd a7 3f 01 be 36 c2 2d 3e cf b6 fc bd
       -0.048458416 -0.12621938 0.16968617 -0.123395555
0001f0 31 8e 92 3e a6 e8 55 bc eb 70 4e 3e a3 06 0e be
       0.28624108 -0.013055956 0.20160262 -0.13869719
000200 a7 77 9c 3e e6 64 51 3e 43 a0 1d 3e e7 9f 2a 3e
       0.30560037 0.20448646 0.15393166 0.1666256
000210 3a 48 a7 3e 3c 41 36 3e d3 84 01 be 49 11 0d bd
       0.32672292 0.17798322 -0.12648325 -0.034440313
000220 b2 5f 28 3d c9 a8 35 be bb 4b 9b be a8 e3 00 3e
       0.041106887 -0.17740168 -0.30331215 0.12586844
000230 82 23 6f 3e 74 5c da b9 58 34 2b be a1 0a 93 be
       0.23353389 -0.00041649083 -0.16719186 -0.28719047
000240 32 f5 75 3e aa 22 ee bd 4d 4c 8c 3e be dd 87 3b
       0.24019316 -0.116277054 0.27401963 0.004146307
000250 3c cb 62 3e 67 b6 aa 3d 08 44 21 3e 8d f9 90 3e
       0.2214784 0.08335572 0.15748608 0.28315392
000260 58 3b b9 3d 0e 43 f5 3c 3a 51 96 be c6 0f 15 be
       0.09044522 0.0299392 -0.29358846 -0.14556798
000270 8e 4e 1b be 70 b1 1d 3e 60 9c 9c be 30 9a 00 bd
       -0.15166685 0.15399718 -0.30588055 -0.031397045
000280 2e 4f a0 3e f8 6f f0 3d 3d 38 88 bd ac 56 51 3e
       0.3131041 0.11740106 -0.066513516 0.20443219
000290 c6 3a af be c5 8d 3f 3e 34 4f 82 bd 6e 39 ff bd
       -0.34224528 0.18706425 -0.06362763 -0.12462126
0002a0 56 67 8a 3e 37 6b 97 3e 6c 6a 01 3d 80 63 56 bb
       0.27031964 0.29573986 0.031595632 -0.0032713115
0002b0 8e 28 51 be b8 fd 6b 3e cd 4e 29 be 28 29 47 3e
       -0.20425627 0.23046005 -0.16533966 0.19449294
0002c0 16 cc f6 bd 42 c7 9c 3e 54 a4 bb 3d 98 7a 3f 3e
       -0.12050645 0.30620772 0.091622025 0.1869911
0002d0 4c bb 30 3e b6 28 69 be 9c 38 8d 3e 60 12 90 3c
       0.17258948 -0.22769436 0.27582252 0.017586887
0002e0 6c 85 92 be 40 d1 86 bb 37 1f 4f be b1 9b a1 be
       -0.28617418 -0.0041143 -0.20226751 -0.31564096
0002f0 dc f5 c1 bd a3 91 99 be 8f fa 6b be de 2a 76 be
       -0.09470722 -0.29993924 -0.230448 -0.2403979
000300 f0 55 19 bd 10 86 5f be 00 d0 e9 3d 4a a8 1d 3e
       -0.037435472 -0.21828485 0.11416626 0.15396228
000310 b4 bb 95 3d 28 b1 d3 bd d8 70 43 be 1c b0 17 be
       0.07311192 -0.10336524 -0.19086015 -0.14813274
000320 6c e7 f2 3d 29 2e 01 be 5c c8 93 be 98 e8 58 3e
       0.118605465 -0.12615265 -0.288638 0.21182477
000330 ac 02 53 3e 6e 4e 65 be e6 5d a0 bd 60 02 2f bd
       0.20606488 -0.223932 -0.0783041 -0.042726874
000340 08 a3 68 3e 25 b3 96 be 74 5b 64 3e 40 39 5e 3e
       0.22718441 -0.2943355 0.22300512 0.21701527
000350 ad 2e b4 3d 1b 74 9c be d0 3d 34 3d b8 67 f9 bd
       0.08797965 -0.3055733 0.04400426 -0.12177986
000360 28 62 68 3e 0a 8e a3 bd 39 e9 21 be 10 5b b0 be
       0.22693694 -0.07986076 -0.15811624 -0.34444475
000370 5c 33 5a 3e 4c 34 cc bd be 04 b6 bd 9c 22 4b be
       0.21308655 -0.09970912 -0.08887623 -0.19837421
000380 78 75 6f bd 8c 02 80 be d5 14 3a be 34 d9 c9 3d
       -0.058461636 -0.25001943 -0.1817201 0.09855881
000390 c7 7f 69 be 4c e9 0a 3e a3 37 23 be 5d 42 9c be
       -0.2280265 0.13565558 -0.15939192 -0.3051938
0003a0 c8 ac c7 3d 46 2f 5d be 5a dc 76 be d1 d7 28 be
       0.09749752 -0.21600065 -0.24107495 -0.16488577
0003b0 ff 23 d1 bd 2f 00 8f 3e 21 80 79 3a 92 0f 58 be
       -0.10211944 0.27929828 0.0009517689 -0.2109969
0003c0 a3 5f 6e 3e 62 b4 ab 3e 36 5d 51 3e 1c c9 a8 bd
       0.2327867 0.3353606 0.20445713 -0.082414836
0003d0 71 9e d3 bd e6 b8 ae 3d 1b fc 04 3e 40 6c 61 3e
       -0.10332955 0.0853136 0.12986796 0.2201395
0003e0 c3 aa 57 bd da bb c9 bd 0a c8 8b 3e 91 da aa 3e
       -0.052653085 -0.09850283 0.27301055 0.33369878
0003f0 bf ec 32 3e 71 37 a3 be 30 39 f9 3d 56 ef d2 bd
       0.17473124 -0.31878236 0.12169111 -0.10299556

sequential_16/dense_42/MatMul f4 [29, 29]
000000 8c 34 37 be 64 a7 0f be 2d b5 ee 3d 1d f1 8f be
       -0.17891139 -0.14028698 0.1165565 -0.28113642
000010 e5 f9 b9 3c ca f8 2d 3e 5b 42 57 be 4a dc 4c 3e
       0.022702167 0.16989437 -0.21021406 0.20005909
000020 2e 32 fa bd d8 cc af 3d f4 74 8f 3d 91 72 46 be
       -0.12216602 0.08583993 0.07004729 -0.19379641
000030 1d 1b 44 be 10 c6 b2 be 71 07 90 3e 1f 6c c2 3d
       -0.19150968 -0.34916735 0.28130677 0.09493279
000040 7e af 8a be 2c 7a 9d bd 8b 84 e1 3d 06 5b 61 3e
       -0.27087015 -0.07689318 0.11011609 0.22007379
000050 32 9e 9f 3e d6 f3 3c be 5d 06 35 3d 5a 57 b4 3d
       0.3117538 -0.18452391 0.04419552 0.088057235
000060 60 7a fa 3d 18 d0 ca bd 74 6f 8c be ff 79 bc be
       0.122303724 -0.09902972 -0.27428782 -0.36811826
000070 9d 06 81 3e 6c e6 87 be a4 d4 77 be 44 cd 7c 3e
       0.25200358 -0.26542985 -0.2420221 0.24687678
000080 ad 65 dd 3d 23 a1 87 3e 65 74 ec 3d 30 6d 8f bd
       0.10810409 0.26490125 0.11545638 -0.07003248
000090 6a 33 34 bd 88 6b 8d 3e 08 01 b0 bd 8c 34 d0 bd
       -0.043994345 0.27621102 -0.08593947 -0.101662725
0000a0 54 e0 c3 ba ed 1d 75 be 26 95 0e be 62 f3 b4 3e
       -0.0014944174 -0.23937197 -0.13924083 0.35341936
0000b0 a9 d2 37 bd e4 cc 72 be 62 8c 14 3c 50 43 d3 bd
       -0.044878636 -0.23710972 0.009066673 -0.10315573
0000c0 91 6b 88 be 74 39 32 3e d3 8a 7e be 9b 47 86 be
       -0.26644567 0.17404729 -0.24857645 -0.26226506
0000d0 01 6e e5 bc ec d0 17 be 4f 51 93 3e da 44 9d 3e
       -0.028006556 -0.14825791 0.2877297 0.30716592
0000e0 dc 44 62 be 9a 5e e4 3c d5 09 56 3e 93 c4 6e be
       -0.2209658 0.02787714 0.20902188 -0.23317175
0000f0 4f ba 08 3e 0f 00 96 3e 83 c8 1c 3b 8c 44 66 3d
       0.13352321 0.2929692 0.0023923225 0.056217715
000100 b2 b8 53 be 57 00 81 3e a7 11 ee bd 16 6f 2c be
       -0.20675924 0.25195572 -0.11624461 -0.16839251
000110 d4 80 11 3e ef 99 e1 3d d8 82 95 3c 4e 9f 3d 3e
       0.142093 0.11015689 0.018250868 0.18517801
000120 4d 68 88 be 22 52 d6 3d d2 25 bd 3c 2d eb 6d bd
       -0.26642075 0.10464884 0.023089323 -0.05808561
000130 cc fc 94 bc 22 e2 d6 bd 07 c7 8b bd d6 4d 22 3d
       -0.01818695 -0.1049235 -0.06825071 0.03962501
000140 1b 3b 8b be 29 39 92 3e 06 f3 f4 3d 59 6c 8d 3e
       -0.2719353 0.28559235 0.119604155 0.27621725
000150 d4 19 82 3e e6 a7 20 be c1 f5 91 bd ee 1a 4a be
       0.2541033 -0.15689048 -0.07126952 -0.19736835
000160 c7 e2 8f be ee 68 e9 3d 8e 30 33 3e c0 fd 3d be
       -0.28102705 0.11396967 0.17498991 -0.18553829
000170 c4 18 6e be b8 8a 9e 3e c3 a0 07 bd 98 7b 0c bd
       -0.23251635 0.3096521 -0.0331123 -0.034297556
000180 6c 7f 47 be 2f 43 92 be f4 40 1b bc 83 df 44 be
       -0.19482201 -0.28566882 -0.009475935 -0.19225888
000190 83 8c b7 3d 4b 4f 97 bd 2a c8 92 3e 22 f7 bf 3c
       0.08962347 -0.07388171 0.28668338 0.023433272
0001a0 89 c3 01 be a6 d6 85 3e cf a4 ee bd 9b 05 5e be
       -0.12672247 0.26140326 -0.116525285 -0.21681826
0001b0 03 a9 cd bd c6 5f 7a 3e 5f d2 9c be 3c 6e 38 be
       -0.10042002 0.24450597 -0.3062925 -0.18010801
0001c0 fd 61 00 3d 84 56 44 bd 46 63 84 be 9c 60 81 3e
       0.03134345 -0.04793407 -0.2585699 0.2526902
0001d0 b0 c2 f2 bd 1f 61 25 bd 9f e4 b1 bd 92 d2 a9 3e
       -0.1185354 -0.040375825 -0.08686184 0.33168465
0001e0 5f 21 a5 3e 06 41 49 3c a4 5b 94 3d a2 ab 61 be
       0.32252023 0.012283569 0.072440416 -0.22038129
0001f0 ab a9 92 3e d5 42 8b be a1 87 85 be a9 84 87 be
       0.2864507 -0.27199426 -0.2608004 -0.264684
000200 1d 51 80 be ef 68 73 3e 45 d8 65 be d7 91 52 3e
       -0.25061885 0.23770498 -0.22445782 0.20563446
000210 7b 0d a9 be f7 ea 0a 3e 7a b5 85 be 66 d4 0e be
       -0.33018097 0.13566194 -0.26115018 -0.13948211
000220 97 4f bb 3d 70 9f 57 3d 40 e5 12 3e b7 cd e5 bd
       0.0914604 0.052642286 0.14345264 -0.112208776
000230 0a c5 1e be 7e 4e 39 3e 45 fe 73 3e ae 2f 58 3d
       -0.15504852 0.18096349 0.23827465 0.052779846
000240 11 14 6f 3d ff 11 35 be fa 86 30 3e 7e ba d1 bd
       0.058368746 -0.17682646 0.1723899 -0.10240649
000250 aa 11 02 3e 64 74 88 be 08 f3 ac bd e8 e2 99 3e
       0.12702051 -0.266513 -0.08444792 0.30055928
000260 43 4a 66 be aa 4c 9b be ca 80 96 be 1f 58 44 be
       -0.22489266 -0.30331928 -0.29395133 -0.1917424
000270 2b 4f 83 be 7d 9f 96 be c3 b2 96 3e a8 4a 8f bd
       -0.25646338 -0.29418555 0.2943326 -0.069966614
000280 5e c6 7e 3e 3f 51 01 3e 3c be 37 be f4 b9 ac 3d
       0.24880359 0.12628649 -0.17943662 0.08433905
000290 70 28 39 3e 93 1c 9d be d0 a6 bf bd 0c 61 87 3e
       0.18081832 -0.30685863 -0.09357989 0.26441228
0002a0 a4 e9 ec 3d a3 8f 6e be 36 e9 01 3e 2d 38 7f be
       0.11568001 -0.2329698 0.12686619 -0.24923773
0002b0 91 d7 ca bd 20 39 74 3e 2f 7a 85 3e 41 88 5d bd
       -0.09904397 0.23849916 0.2606978 -0.05408502
0002c0 02 03 a1 bd a9 9b 4d bc ad 63 a0 3d 39 44 28 3d
       -0.07861902 -0.012549319 0.07831512 0.041080687
0002d0 1c 20 99 be 72 d6 62 3e db d7 ea 3c 92 39 97 3e
       -0.2990731 0.22152117 0.028667381 0.2953611
0002e0 61 79 34 3e cd 78 60 3d 08 6d 49 bd 5f b7 af 3c
       0.17624427 0.054802705 -0.049176246 0.021449743
0002f0 f6 8d 60 be 05 90 a8 bd f0 de 77 3b f6 6e 65 3d
       -0.21929154 -0.082305945 0.003782209 0.056014024
000300 a0 04 76 3e 93 4d b6 3d 21 e4 af bd b9 22 ea 3d
       0.24025202 0.08901515 -0.08588434 0.11432404
000310 c0 11 82 3e 99 c1 48 3e 6b 35 7b 3e cf 76 f9 bd
       0.25404167 0.19605102 0.24532096 -0.12180864
000320 17 8a c4 bb 0d 8f 6b 3e 83 8f 74 3c c9 e5 fb bd
       -0.005997907 0.23003788 0.014926794 -0.122996874
000330 ce 41 0c 3e 29 bc 85 3e 06 e6 a1 be b7 1d b0 bd
       0.13696977 0.26120117 -0.31620806 -0.08599418
000340 de 84 6f 3e e4 8c 15 3e 5b ce ef bd 5c b0 24 3e
       0.23390529 0.14604527 -0.11709281 0.16082901
000350 40 5e 95 3e 4d fb 0c be 49 86 04 be f4 e1 87 3e
       0.2917347 -0.13767739 -0.1294185 0.26539576
000360 f7 7e 8f be 52 3a 98 be f1 4c a6 3e 66 d5 07 3e
       -0.28026554 -0.29731995 0.32480577 0.13264999
000370 4c 0b 7e be ad 7a 66 be 63 4b 84 3e 54 89 7b 3e
       -0.24808997 -0.22507735 0.25838766 0.24564105
000380 ab 4f a1 bd 5c 79 3b 3d 35 cd b6 bd 5e 74 4b 3e
       -0.078765236 0.045770034 -0.08925859 0.1986861
000390 1f b9 69 be 08 05 92 3e 34 b8 28 be c0 ae d0 3d
       -0.22824524 0.28519464 -0.16476518 0.10189581
0003a0 eb 36 e1 bd 19 9c 9a bd e5 0a f2 bd 50 d5 11 be
       -0.10996803 -0.075493045 -0.11818484 -0.14241529
0003b0 59 03 98 3c 54 a5 c0 3d ea 5e 12 be 00 74 0e be
       0.018556284 0.09406534 -0.1429402 -0.13911438
0003c0 7d d6 44 be d0 c7 7a 3e da 8a 97 be 94 b3 23 3e
       -0.19222446 0.24490285 -0.29598123 0.15986472
0003d0 f0 98 23 3e d7 ab a3 bc fc a7 4d be 8b 29 d3 3d
       0.1597631 -0.0199794 -0.20083612 0.10310658
0003e0 f2 73 3a 3e 5f bd 99 be 93 fc a0 be 60 b2 3d 3e
       0.18208292 -0.3002729 -0.314427 0.18525076
0003f0 ba a4 19 3e 14 41 e4 3d af 4a 0d be 3a 60 0d 3e
       0.15004244 0.11145225 -0.13798021 0.13806239

sequential_16/dense_43/MatMul f4 [11, 29]
000000 d8 f6 9b 3e ea bf 34 3e 88 f8 86 3e f4 7c 90 be
       0.30461764 0.17651334 0.2636149 -0.28220332
000010 bc 48 8d 3c 63 51 60 3e af 4e 89 3e 70 78 7e be
       0.017246597 0.21906047 0.26817843 -0.24850631
000020 ff 9c a4 3d e6 3b 37 3e 5a dc 4f be 6d a7 14 bd
       0.08037757 0.17893943 -0.20298901 -0.036292482
000030 11 3d 07 3d 46 06 5b 3e cf af 0b be 8f 1e 2e be
       0.03301722 0.21389112 -0.13641284 -0.17003845
000040 37 b3 0d 3e 1f a7 c7 3e 5b f7 2a bd a6 c3 e7 be
       0.13837896 0.3899469 -0.041739803 -0.45266455
000050 4c 65 49 be 5e 9e 9d bd b0 48 65 3e c3 2a 23 be
       -0.19667548 -0.07696222 0.2239101 -0.15934281
000060 11 57 af 3e e9 4b f3 be 8f 2f d5 bd df f3 67 be
       0.34246114 -0.47518852 -0.10409462 -0.22651623
000070 00 b0 c4 3e 7b 94 00 3e 8a 8d e2 3e 1c 2a ca 3d
       0.38415527 0.12556641 0.4424861 0.09871313
000080 b2 e8 bf bd fd 71 8b 3e a9 bf 25 3c 51 75 d6 be
       -0.09370555 0.27235404 0.010116496 -0.4188638
000090 0d 83 3c 3e 0e b7 e4 3c 14 4b 6f be 78 d1 d2 bd
       0.18409367 0.027919319 -0.23368484 -0.10293859
0000a0 9b 54 10 bf e1 20 a4 3e a6 d2 c3 3e 2f 19 08 3e
       -0.563791 0.32056335 0.3824665 0.13290857
0000b0 48 e1 90 be 68 d7 c1 bd c4 47 94 bd c2 95 88 be
       -0.28296876 -0.094649136 -0.07240251 -0.26676756
0000c0 ae 18 cb 3d 3c 60 ec be 81 31 b2 3b a1 11 3f bd
       0.09916817 -0.4616717 0.00543803 -0.04664767
0000d0 c8 92 53 3e f2 b1 87 be 87 2a c6 be 27 fa 08 3e
       0.20661461 -0.2650295 -0.3870432 0.13376676
0000e0 8e 88 0b bd 04 94 c4 3d 18 a9 dd bd 0d 48 90 be
       -0.034065776 0.09598544 -0.10823268 -0.2817997
0000f0 13 d3 e0 bc 40 65 7c 3e a9 3e cd 3e 4e fd 7e 3e
       -0.027444398 0.24647999 0.40086868 0.24901316
000100 f8 54 09 3d 5a 03 60 be 16 49 70 be f9 14 f6 3e
       0.0335283 -0.21876279 -0.2346538 0.48062876
000110 c7 5e 02 3e 09 15 36 3d 50 55 6c be 69 b8 ee be
       0.12731467 0.044453654 -0.23079419 -0.4662507
000120 3d 12 4f 3d ea ad 8e 3d cf 0f 61 be 2b 70 cf bd
       0.050554503 0.06966765 -0.21978687 -0.10128816
000130 6c 90 95 bd c5 00 cd 3e 5e 45 1f bd 8d 1f be 3e
       -0.07302937 0.4003965 -0.038884513 0.37133446
000140 1f 10 85 be e8 d4 b2 be d8 79 8b bd 5d e3 a0 bd
       -0.25988862 -0.3492806 -0.06810349 -0.07855866
000150 41 d5 b2 be b7 ad a8 be 4c 2e f5 be 21 f5 7e be
       -0.34928325 -0.32945034 -0.47886884 -0.24898197
000160 2b 1f 06 be ae 99 c7 be 0c e5 4a be 50 b4 9e 3c
       -0.13097827 -0.38984436 -0.19813937 0.01937309
000170 16 59 2a be f5 4a b5 3d ca 47 85 3d eb b2 ec be
       -0.16635546 0.088521875 0.06507833 -0.46230254
000180 33 92 a6 3e f6 48 73 3e 63 49 ba 3e 09 9a 92 3e
       0.32533416 0.23758301 0.36384115 0.28633144
000190 05 98 cc 3b ac f6 d5 3d 47 dc b4 3e 67 e0 76 be
       0.006243708 0.104474396 0.35324308 -0.2410904
0001a0 e0 dd 6c be 89 d7 da 3b b5 a9 a6 be cd 87 83 3e
       -0.23131514 0.006678526 -0.3255135 0.25689545
0001b0 a5 0a 32 bd 21 30 9b 3e 99 fd 0b 3e 89 ff 88 3e
       -0.043467183 0.30310157 0.13670959 0.26757458
0001c0 4c c3 d3 3e f6 a3 71 be 82 c5 6a 3e b7 d3 00 bf
       0.41359937 -0.23597702 0.22926906 -0.5032305
0001d0 da 48 2e 3e 53 03 ea bd af da 84 be 45 a4 c2 be
       0.17019978 -0.11426415 -0.25948092 -0.38015953
0001e0 ed bc 35 be 0d 29 e4 bc 2b 4a 26 bd 09 3e 61 be
       -0.1774785 -0.027851606 -0.040598076 -0.21996321
0001f0 f8 b7 4c 3d 51 3e e7 bd 85 91 c1 3e bf 25 f2 3d
       0.049980134 -0.11291183 0.37806335 0.11823606
000200 94 a6 34 3d ca c2 8f 3e 22 ae 4c 3e fa 1d 32 3e
       0.044104174 0.280783 0.19988301 0.17394248
000210 dd 90 dc 3d 2e a2 9a be 32 92 be be 35 7a 46 bc
       0.10769818 -0.30201858 -0.37220913 -0.012114097
000220 b1 58 6a be 36 2c b2 3e 22 9c aa 3e 3f ef e5 be
       -0.22885396 0.34799355 0.33322245 -0.44909093
000230 6d e5 84 3d 33 e2 0b be 0a 18 86 be 56 49 64 bd
       0.06489072 -0.13660507 -0.26190215 -0.055734
000240 57 c6 21 3e eb b3 7c 3e 6e e9 17 3e 4a 66 69 be
       0.15798317 0.24678008 0.1483514 -0.22792926
000250 4f fd 74 be b9 c4 77 3e bf cc b8 bd eb fd 4c bc
       -0.23924755 0.24196137 -0.09023427 -0.012511711
000260 5f a8 db bd b3 ec b2 3d 52 ef 24 bd fe e1 4b bb
       -0.107254736 0.08736553 -0.040267296 -0.0031110044
000270 76 09 7c 3d d3 26 87 be 0b e6 93 3e 23 ba 2a 3e
       0.06153246 -0.26396808 0.28886446 0.16672568
000280 2a 43 4d be 2d 7b e5 3d 40 ca ba 3d f6 42 be 3e
       -0.20045152 0.112051345 0.091206074 0.37160462
000290 b7 a0 ab 3e f3 65 c4 3d 2a 13 7d be 71 04 90 bd
       0.33521053 0.09589758 -0.24714342 -0.07032097
0002a0 ae 6c 83 be 62 b3 b0 be ae 2b ae bd a6 c0 76 be
       -0.25668854 -0.34511858 -0.08504425 -0.24096927
0002b0 e6 92 93 3e 31 3e c4 3e e4 60 81 bd 4f e8 f4 3d
       0.28823012 0.38328698 -0.063173085 0.11958372
0002c0 1d a9 10 3d f7 ed 82 3e 6d 4a 98 3b 70 9c dc 3c
       0.03531753 0.25572178 0.004647544 0.026930064
0002d0 36 02 39 3e 5d 9c ca be d1 17 d2 be 5e ae 97 3e
       0.1806725 -0.3957242 -0.41033795 0.2962522
0002e0 5a 8f 30 be 3f 44 02 3d 45 9a 0a 3e 67 7d 80 3e
       -0.17242184 0.031803366 0.13535412 0.25095674
0002f0 74 d3 07 bf 66 03 75 3e 20 d0 79 bd 29 f5 a2 3e
       -0.53057027 0.23927078 -0.0609895 0.31827667
000300 d6 38 03 be 68 e1 f2 3d e0 1c 39 3e 2a 05 bc 3e
       -0.1281465 0.11859399 0.18077421 0.3672269
000310 fd e4 c8 be 93 92 59 3d 1c d1 98 3e b1 77 a0 3d
       -0.39237204 0.0531183 0.29847038 0.07835329
000320 ba 35 6f be 55 fc b8 be de 12 d3 be fa c0 50 3d
       -0.23360339 -0.36130014 -0.41225332 0.050965287
000330 a8 88 8d 3e ef de 5b 3d a4 f0 73 be 00 ea a8 be
       0.27643323 0.053679403 -0.23822266 -0.32991028
000340 e1 f6 81 be f9 25 92 be 5a 05 9d be ac 74 6b bc
       -0.25383666 -0.28544596 -0.30668145 -0.014371078
000350 e3 20 24 3e d3 76 d0 3e 42 f5 66 be 42 96 c4 3d
       0.1602817 0.40715656 -0.22554496 0.09598972
000360 a7 91 ac 3e db cb fe bd 4b 56 c6 3e e3 40 1b 3e
       0.33704874 -0.12441226 0.3873771 0.15161471
000370 87 ff 83 3e 61 50 5b be e4 68 a8 be 93 17 f8 3b
       0.2578089 -0.21417381 -0.32892525 0.0075711696
000380 38 b8 7b 3e c8 35 6f be 8a e4 7c be 9d db bb be
       0.24581993 -0.2336036 -0.24696556 -0.3669099
000390 c4 90 08 3d 8f 71 cd be 0d f6 8c bd 6a 32 35 be
       0.033341184 -0.401257 -0.06882868 -0.17695013
0003a0 36 35 d4 3d 04 06 aa be 45 fd 64 3e 0b 40 99 3e
       0.10361712 -0.33207715 0.2236224 0.29931673
0003b0 e4 a7 09 be 5b 7a 75 be b6 32 c6 3e 71 da 22 3e
       -0.13442951 -0.23972456 0.38710564 0.15903641
0003c0 7a 52 91 3e 30 0b 42 3e 5d d4 34 3d bd 5f 83 3e
       0.28383237 0.1894958 0.044147838 0.2565898
0003d0 80 9d 57 3e 03 4b d6 be 64 02 8f bc 70 3f da 3d
       0.21056175 -0.41854104 -0.017457195 0.10656631
0003e0 b2 50 27 3e 4b 50 98 3e aa 96 a8 bd 5a 91 16 3e
       0.16339377 0.2974876 -0.08231862 0.14703885
0003f0 ed 4e 47 3e 05 f9 7b be d6 36 64 3e 37 2c 81 be
       0.19463702 -0.24606712 0.22286543 -0.25229046

sequential_16/conv2d_62/Conv2D f4 [29, 3, 3, 3]
000000 25 b5 ad bd 65 1b 0c 3e 95 d7 da 3d 7e f3 4f 3d
       -0.08481816 0.13682325 0.1068565 0.05076932
000010 63 5a 0f be 00 d3 20 3e 9b 0c 0f be 11 35 2b 3c
       -0.13999324 0.1570549 -0.13969652 0.010449664
000020 93 9e 90 bb b8 cc 3d bd c8 dc d3 3c 0b b6 ab 3d
       -0.004413435 -0.046337813 0.025862113 0.08384331
000030 71 f4 df 3d ba a9 d8 3d 9f cc ec 3d 60 54 be bd
       0.109352954 0.10579248 0.11562466 -0.09293437
000040 f4 7a fb bd 6e fb 0d bd 75 25 0f bd 8b cf a2 bd
       -0.12279311 -0.03466361 -0.03494783 -0.07949742
000050 6f 98 da bd 00 68 d5 bd 6f 77 4d bd 60 ec b6 bd
       -0.10673606 -0.10420227 -0.05016273 -0.08931804
000060 18 c0 bf 3d 9e ca fd bd 90 92 86 3d 72 f3 12 3e
       0.09362811 -0.12392162 0.06570923 0.1435068
000070 71 24 8e bd 90 fb 9f bd 15 cb a4 3d 74 d3 11 3d
       -0.069405444 -0.078116536 0.08046547 0.035602048
000080 59 d6 01 be 32 c2 46 bd ac 59 0d be 17 74 47 bd
       -0.12679423 -0.048525043 -0.13803738 -0.048694696
000090 74 aa 87 bc 1b 54 2f be cc 87 db 3d 0c 67 03 3e
       -0.01656077 -0.17121927 0.107192606 0.12832278
0000a0 67 fe 00 be 91 83 99 3d fe 8c f8 3d e6 4f 06 be
       -0.12597047 0.074957974 0.12136267 -0.13116416
0000b0 05 a3 8c bc 1e 26 ff bc 29 00 d6 bd e6 7b d8 3d
       -0.017167578 -0.031146105 -0.10449249 0.10570507
0000c0 5e d4 12 3c 0a 1c c3 bd 1a d8 10 3d 28 17 20 3e
       0.008961765 -0.095268324 0.03536234 0.15633833
0000d0 54 b2 44 3d e4 e2 8c bd 38 19 4c bd 89 0f c8 bd
       0.04802163 -0.068792135 -0.049828738 -0.09768588
0000e0 a9 c7 ae 3d a7 bf 14 3d aa 35 96 bd 29 0f e3 3d
       0.08534176 0.036315586 -0.07334454 0.11086876
0000f0 11 f2 83 3d 74 9b 54 3c 3a 96 a6 3d 46 13 e6 3d
       0.06442655 0.012976516 0.08134122 0.11234145
000100 3d 41 3e 3d 2c e8 80 3d 05 09 47 3d 59 1a 60 bd
       0.046448935 0.06294283 0.048592586 -0.054712627
000110 78 93 ce bd 32 22 b0 bd 16 92 89 bd 4c 98 98 3d
       -0.10086721 -0.08600272 -0.06717317 0.07450923
000120 ec 8c 91 bd a4 8c 65 3d 97 d9 9f 3d be 14 d0 bd
       -0.07106957 0.05604233 0.07805174 -0.10160206
000130 4d 51 9e bd 15 bd 0f 3e a2 8d dc bd 71 2c 09 3e
       -0.07730351 0.14036973 -0.10769202 0.1339586
000140 4f 17 f4 3c 7b 51 4a 3d df a1 d7 bc a0 b9 d9 3d
       0.02979627 0.049394112 -0.026322303 0.10631108
000150 0d 30 d6 bd 5b 75 14 3e f4 34 c7 3c 78 26 05 bd
       -0.10458384 0.14497893 0.024317242 -0.03250739
000160 cb 4f 09 be 3e 36 05 3e f1 9e 0e be 0d 86 b0 bd
       -0.13409345 0.13008973 -0.13927819 -0.08619318
000170 6d 55 03 3e 6d 07 9c bd 34 af c9 3c 69 ff 28 3e
       0.12825556 -0.07618604 0.024619676 0.16503681
000180 4d 43 2d 3d 92 8b 8c bd cf d4 80 bc df 23 a5 bc
       0.04230051 -0.068625584 -0.015726475 -0.020158706
000190 33 23 82 bd 9f e8 65 bd fa ac d9 bd e7 07 3d bd
       -0.0635437 -0.056130048 -0.10628696 -0.046150114
0001a0 fc 06 b9 3d ed fb cb 3c 21 cc aa 3d bc 6e 8d bc
       0.09034535 0.024900401 0.08339716 -0.017264716
0001b0 1a 35 9c 3d c4 94 81 bd 52 1e 0d 3d 50 b0 b1 3d
       0.07627316 -0.06327203 0.034452744 0.08676207
0001c0 1a ce f9 bd 7d 0f 18 3d 86 ea 12 be 34 ed 86 bd
       -0.12197514 0.037124146 -0.14347276 -0.06588212
0001d0 27 bf ac 3c b3 0c 12 be 0b e3 01 bd 6c d4 1a 3e
       0.021087242 -0.14262657 -0.031710666 0.15120095
0001e0 d0 e7 0b be ce 73 98 3d a4 6e ac 3d ba 9d 3a 3d
       -0.13662648 0.07443963 0.084195405 0.045560576
0001f0 05 ea f9 bc f9 10 4a 3d ee 65 46 3d 1a df ce 3d
       -0.030507097 0.049332593 0.04843705 0.10101147
000200 b6 7d fa 3d 60 c6 f9 3c 50 20 42 3d 9f ed dc 3d
       0.12231009 0.0304901 0.047394097 0.1078751
000210 03 ba b1 bc 9e 76 bc bd 0b 5b ef 3d 24 5c cd 3d
       -0.021695143 -0.09202312 0.11687287 0.1002734
000220 d6 38 b0 bc 3d 44 11 be fb 3a c1 3d d2 13 e6 bd
       -0.021511476 -0.14186187 0.09435078 -0.11234249
000230 e5 c9 0f be 22 ba 24 be c1 de f5 3a 9c ba 24 be
       -0.1404186 -0.16086629 0.0018758402 -0.16086811
000240 7a 2d c8 3b ae 52 de 3c 24 8b 64 3d f2 59 e0 bd
       0.006108937 0.027139034 0.055796757 -0.10954656
000250 13 61 65 3d 94 54 17 be 3a 60 8e bd 79 38 e5 bc
       0.05600078 -0.14778358 -0.069519475 -0.02798103
000260 3f bd 6a 3d 5e 50 95 3d 8b 17 95 3d 8e 36 6d 3d
       0.057309385 0.072907194 0.07279881 0.057913356
000270 08 2b cf bc c3 da 60 3d 20 d7 0d 3e bb e7 be 3d
       -0.025289074 0.054896127 0.13851595 0.09321543
000280 7c 9b b6 3d b6 2d aa 3d f4 38 79 bd 51 e5 b3 bd
       0.08916375 0.083095 -0.06084533 -0.08783973
000290 34 80 9f bc e9 3b e6 bd c8 70 07 be 7e 43 29 3c
       -0.019470312 -0.11241896 -0.13226616 0.010331033
0002a0 8d 99 5a 3d 7e fd 0b 3e de fb a6 3d 2b 20 1b 3d
       0.053369094 0.13670918 0.081535086 0.037872475
0002b0 4c ef da bd 79 e1 2d be 07 d9 b5 bd 45 9b df 3d
       -0.106901735 -0.16980542 -0.08879285 0.10918287
0002c0 45 d4 b3 bd 7a d5 38 3d 62 b2 ba 3d dd 71 f5 3d
       -0.087807216 0.045125462 0.09116055 0.11984608
0002d0 80 ac 17 be 47 a9 53 3d d8 ef bc bd de da d3 3d
       -0.14811897 0.051675107 -0.09225434 0.1034448
0002e0 40 1b 4e bc 72 18 07 bd 50 36 0c 3e 7e 56 c3 bc
       -0.012579739 -0.032982297 0.13692594 -0.023844954
0002f0 a3 40 8a 3d 36 25 f9 bd f3 87 ad 3d 85 df 0b 3e
       0.0675061 -0.121653005 0.08473196 0.13659485
000300 8e 85 00 bd 83 40 a9 bc 33 24 8e 3c a8 ff db bd
       -0.031377368 -0.020660644 0.017351246 -0.10742122
000310 4e f4 d5 3c a8 3a 07 3e b3 64 28 be 65 9d 0c 3e
       0.02611747 0.1320597 -0.16444664 0.13731916
000320 2f 75 09 3d 41 42 07 3d af 7e 63 3d d2 24 0d 3e
       0.03355902 0.03302217 0.055540737 0.13783577
000330 c6 92 f3 3c 03 f6 2f bc 96 5f f7 bb 9f 47 24 be
       0.029733073 -0.010739806 -0.0075492365 -0.16042946
000340 8a 5d 02 3e ef e2 ae 3d 32 c2 cb 3d 82 79 b5 bd
       0.12730995 0.08539378 0.09949149 -0.088610664
000350 4e ba 13 3d 2b be 14 be 37 16 10 be 51 f4 88 bd
       0.036066346 -0.14525668 -0.14070974 -0.06687225
000360 92 39 14 3e f2 ab e3 3d eb fd 3a bc 03 ec dc 3d
       0.14475086 0.1111678 -0.011413078 0.10787203
000370 80 b6 ce 3d d6 a6 a4 bd 8d 02 e4 bd c0 81 e2 bd
       0.10093403 -0.08039634 -0.11133299 -0.11059904
000380 67 de 42 3d 2e b0 68 3d 5e 7b b2 bc f5 37 a1 3d
       0.04757538 0.056808643 -0.021787342 0.07872001
000390 b7 1a 14 be 98 08 d6 bd 12 c5 fa bd 02 a3 fe bc
       -0.14463316 -0.10450858 -0.122446194 -0.031083588
0003a0 0c 8d 69 3c ec 83 10 3e 06 89 43 be f7 d1 f5 bc
       0.01425482 0.14112824 -0.19095239 -0.030007346
0003b0 ea 48 2d bd 70 37 cb 3d 22 eb 08 bc e1 15 71 bd
       -0.042305864 0.09922683 -0.008356841 -0.058858756
0003c0 c8 7c ac bd 5a d8 e9 bd 5a 8a 94 3d db 54 8e 3d
       -0.08422238 -0.11418219 0.07252951 0.06949779
0003d0 e4 8b f0 3d bb 59 11 be e4 90 a9 3c 35 30 74 3d
       0.11745432 -0.14194386 0.020698972 0.059616286
0003e0 76 5c 0d be e7 ff 96 3c 2b 9e f3 bd 55 1b 27 bd
       -0.13804802 0.01843257 -0.118954025 -0.04079755
0003f0 3d a5 04 bd 0b 78 09 bd 8a 0b 5f bd ea eb 95 bd
       -0.032384146 -0.033561748 -0.054454364 -0.07320388

sequential_16/conv2d_63/Conv2D f4 [29, 3, 3, 29]
000000 4d dc 6e 3d f7 48 38 be 25 4f a8 3d e0 2a f4 3d
       0.058315564 -0.17996584 0.082182206 0.1192224
000010 a5 57 6d bd 0d 66 80 bd 90 cf 80 bd 27 39 1a 3d
       -0.057944912 -0.06269465 -0.062895894 0.03765216
000020 a6 25 e5 bc 5c 40 8f bc 55 57 da 3c b8 65 af bd
       -0.027972054 -0.017486744 0.026652971 -0.08564323
000030 b0 ad cc bc ce 29 c0 bd 65 af 35 3d e5 36 b2 3c
       -0.024985164 -0.093829736 0.044356722 0.021754691
000040 c6 d0 1a 3e 30 ee 22 3d 52 b5 fb bd 75 5f c3 bc
       0.15118703 0.039777935 -0.122904435 -0.023849228
000050 1e d2 0f 3d 4a e3 7f bc f1 b3 92 bd d0 cf b8 3a
       0.035112493 -0.015618155 -0.07163227 0.0014100019
000060 5f e2 ff 3d 04 01 18 bd a4 25 58 3d 1d 83 cf 3c
       0.12494349 -0.037110344 0.052770272 0.025331074
000070 1d b9 93 3a 9b 43 8f bd 61 7f fb bd e4 be 32 3d
       0.0011270378 -0.069953166 -0.12280155 0.04363908
000080 88 3e 02 3e e4 ff f0 3b 52 58 67 3d 27 ec e6 bd
       0.12719166 0.0073547233 0.056480713 -0.11275511
000090 5f 14 d9 3c 2d 65 5a bd 89 eb a9 3c 18 6d d0 3d
       0.026498972 -0.053319145 0.020742195 0.10177058
0000a0 c9 ed a0 bb 2c b2 a2 3d 71 fd c7 bd 56 9f 39 3d
       -0.0049111587 0.0794414 -0.09765137 0.04531797
0000b0 ee 2f 76 3d d9 ac 12 3e e1 4e 79 3d b2 8b 64 be
       0.060104303 0.14323749 0.06086624 -0.22318915
0000c0 e1 14 4a 3d c8 fc 76 bc a7 9d d6 bd ce 41 b1 bd
       0.049336318 -0.015074916 -0.104792885 -0.086551294
0000d0 a7 7b 09 3e 23 e3 6e bd f9 25 1a bd ff ae ea 3d
       0.13426076 -0.058322083 -0.03763387 0.11459159
0000e0 25 35 39 bd 9c 36 c5 bd cd 5a 10 bd 74 05 33 be
       -0.0452167 -0.096295565 -0.035242844 -0.17482549
0000f0 3f a9 85 bd 7f 18 f9 3c d1 46 4d 3d 41 83 56 bd
       -0.06526422 0.030407188 0.050116364 -0.052371267
000100 ec 24 ae bd 3b e6 6e bc 50 dd 45 3d 52 c2 ad bd
       -0.08503136 -0.014581258 0.048306763 -0.08484329
000110 95 6f 96 bd 8f e6 7c 3d 4b 8f b0 bd 31 f7 a9 3d
       -0.07345501 0.061743315 -0.08621081 0.08299101
000120 4b 9f 75 bc 93 d0 98 3d 45 fd 73 3d 5c 23 28 3d
       -0.014991592 0.074616574 0.05956771 0.041049346
000130 d0 05 ae bd 95 e4 d3 3d 7c 52 4d 3d c4 9f 98 bc
       -0.084972024 0.10346333 0.05012749 -0.01863087
000140 c0 67 8c 3c c9 71 ae 3d a6 9f cd 3d d1 0b 43 bd
       0.017139316 0.085177965 0.10040216 -0.04761869
000150 95 55 53 bd 38 41 c0 3d b4 45 42 3d 98 5d 10 3c
       -0.05159529 0.093874395 0.047429755 0.008811377
000160 2a ef 34 be 39 da 29 3d 5f e3 b4 bc 86 7f e3 3d
       -0.17669359 0.04146788 -0.022081075 0.111083075
000170 62 b0 6a 3a da 52 43 3c 5e e0 a8 3d 43 11 5b 3d
       0.00089526747 0.011921609 0.0824592 0.05348326
000180 09 91 a7 3d cd 93 56 3d 4e 95 cf 3d b7 48 b2 bb
       0.0818196 0.052387048 0.101358995 -0.005440797
000190 8b a8 f2 3b de 73 40 3d 62 28 56 3d 16 71 c3 bc
       0.007405346 0.0469855 0.052284606 -0.023857635
0001a0 32 2c 3b bd f5 01 3e 3d 61 fe d1 3d df b2 95 bd
       -0.045696445 0.046388585 0.10253597 -0.073095076
0001b0 ff 87 ed 3a 0a b1 c4 3d ca d8 fb 3d c5 b7 6d 3d
       0.0018122195 0.0960408 0.122972086 0.058036584
0001c0 ea a8 bd 3d 3a 90 2a bc 38 f2 03 3e 6d 5e f1 bc
       0.092607334 -0.010410363 0.12885368 -0.029463971
0001d0 40 09 5a bc 75 8c 2f be fa e3 20 3d 94 19 27 bc
       -0.013307869 -0.17143424 0.039279915 -0.010198969
0001e0 7f 30 d3 bd ea ca a0 bd 0f ef 51 bc a0 3c ce 3d
       -0.10311984 -0.07851203 -0.012813344 0.10070157
0001f0 9c dd 00 3b f6 1c f2 3c a3 9d c4 3d 43 66 c4 bb
       0.001966334 0.029554825 0.09600379 -0.005993636
000200 93 5b 86 3c ab 55 9c 3c 17 a6 69 3d ed 35 0c bd
       0.016401088 0.019083818 0.05704316 -0.034231115
000210 22 64 52 3c f1 8a 31 bb 69 df c1 bc 18 be f7 3d
       0.012841256 -0.0027090872 -0.0236661 0.120968044
000220 de 3c cf bd 78 61 71 bd 82 d7 93 3d 9e c1 86 3d
       -0.10119031 -0.058930844 0.07218839 0.06579898
000230 3f 39 c8 3b 9d e9 0c 3d 38 a7 ad 3d 00 2a a6 3d
       0.00611034 0.03440248 0.0847916 0.081134796
000240 be 64 87 ba b9 27 89 3d c9 61 05 be fb 60 c5 3c
       -0.0010329706 0.066970296 -0.13025583 0.024094095
000250 d4 ca c1 3c 5f 55 6b ba f3 4b 00 bd 14 c4 80 3d
       0.023656286 -0.000897726 -0.03132243 0.06287399
000260 81 4a 8c 3b 1b 9c be 3c 68 45 3c bd d2 88 ab 3c
       0.0042813425 0.023267796 -0.04596463 0.020939264
000270 f8 e2 31 3d e0 99 f0 3c 74 05 8f bc 13 21 cb bd
       0.043429345 0.029370248 -0.017458655 -0.09918418
000280 18 63 b4 bd 6a 9e f4 3d 14 8a f4 3c ee c2 34 be
       -0.08807963 0.119442776 0.029850997 -0.17652485
000290 8d f3 a9 3d df e3 44 bd b0 7b 37 3d 72 7f 70 bd
       0.08298407 -0.048068877 0.044795692 -0.05871529
0002a0 30 79 01 bd 02 5b d4 3d 08 83 80 bb 2c 1d 10 3e
       -0.031609714 0.10368921 -0.00392187 0.14073628
0002b0 ff a1 cd bb 3a 37 e9 bd 5e 88 da 3d e2 2c 38 be
       -0.006275415 -0.11387487 0.10670541 -0.17985871
0002c0 ee 76 4d bd 01 ef 04 3e 9a b8 ab bd e0 d5 89 3d
       -0.05016225 0.12981798 -0.08384819 0.067302465
0002d0 05 d5 8b 3d 25 37 cb 3d a9 79 cb 3d f5 e5 8a ba
       0.068277396 0.09922627 0.09935314 -0.0010597097
0002e0 28 74 8b bc bf a4 d0 3d 55 36 b6 3d f5 22 ee bc
       -0.017023161 0.10187673 0.08897082 -0.029069403
0002f0 83 6a f0 3c 4b bb cf bd e6 eb d8 bc bf 36 f1 3d
       0.029347664 -0.10143145 -0.026479673 0.1177802
000300 47 16 98 bd 66 9f fd 3c 7e 99 12 be 39 15 d4 bd
       -0.07426124 0.030959796 -0.14316365 -0.103556104
000310 5a 44 2a bd cc 78 b3 3d 80 17 06 3e 2a bd e3 bc
       -0.04156909 0.087632746 0.13094902 -0.027800161
000320 f6 07 2f 3e 15 e4 6c 3b 70 0b 76 bd 25 a0 9f 3d
       0.1709288 0.003614669 -0.0600695 0.07794217
000330 02 9c 86 bd bf 35 06 3b cc 58 b3 3d b3 fd aa 3b
       -0.06572725 0.0020478813 0.08757171 0.0052182316
000340 04 02 0d 3b 69 30 a4 3d 1d f8 c0 bc 38 dd c8 bb
       0.0021516094 0.08017046 -0.02355581 -0.006129887
000350 db 21 2d bd b9 4a 1f 3d 79 51 3a bd f9 bf 84 3d
       -0.042268615 0.03888962 -0.045487855 0.064819284
000360 fd de 3f 3d 99 32 a0 3d 4c 2b 6c 3c b6 c7 3c bd
       0.046843518 0.07822151 0.01441462 -0.046088897
000370 89 00 c1 bb ba 30 fd bd 58 c1 57 3d 25 ed 05 be
       -0.0058899564 -0.123628095 0.05267462 -0.13078745
000380 e7 e1 09 be f6 17 ad 3c bd 2f c0 3d f7 ed e1 3d
       -0.13465081 0.02112959 0.09384105 0.11031716
000390 c0 c5 a5 3d 36 d8 2a 3e f5 6b 34 bc 84 36 97 37
       0.080943584 0.1668404 -0.011012067 1.8025989e-05
0003a0 b9 83 72 bd 12 05 4b be 4c 9c 9a 3d 1f 30 c8 bc
       -0.05920765 -0.19826153 0.075493425 -0.024437008
0003b0 20 39 1a bd 6c 9c cb 3d 6c f1 77 bd 52 ed 28 3e
       -0.037652135 0.099419445 -0.060532972 0.1649678
0003c0 eb da 84 3d 01 ff 93 bd 76 d5 34 3d 9e d6 bb bd
       0.06487068 -0.072263725 0.044148885 -0.09171794
0003d0 5e ed b9 3d 7d 3d 52 bd a9 f7 a6 bc 1e fd a6 3d
       0.09078477 -0.05132817 -0.020381765 0.08153747
0003e0 67 1a 4b bd 95 14 d7 3d c8 44 fc bd 69 f3 67 3d
       -0.049585726 0.105019726 -0.123178065 0.05662862
0003f0 2c e7 fb bd a4 93 0e bd 13 36 79 bd 7f fa 23 3d
       -0.12299952 -0.03480877 -0.060842585 0.040033814
